Assets/Games/Race/AI/Brain/My Behavior2.onnx (onnx, 147712 bytes, 7 tensors)

network_body._body_endoder.seq_layers.0.weight f4 [128, 18]
0	0xbe368d49	-0.17827334
1	0xbecdbf13	-0.4018484
2	0x3d7ab4f3	0.061207723
3	0xbde76b6d	-0.11299787
4	0xbeb779dd	-0.35835162
5	0x3e178209	0.14795698
6	0xbe7e4241	-0.24829961
7	0x3def4e52	0.1168486
8	0xbe0056e0	-0.1253314
9	0xbeb13dc8	-0.34617448
10	0x3ef964b0	0.4870963
11	0xbe8d03f7	-0.27542087
12	0x3db4e065	0.08831862
13	0xbe2b06ee	-0.16701862
14	0xbd9526f4	-0.0728282
15	0x3ee897c4	0.45428288
16	0x3db51221	0.088413484
17	0xbcde8b06	-0.0271659
18	0xbea50723	-0.32232007
19	0xba326e24	-0.00068065734
20	0x3df6be01	0.12047959
21	0x3e813891	0.2523847
22	0xbda3ce13	-0.0799829
23	0x3e27251a	0.16322747
24	0x3d53620f	0.051607188
25	0x3e4ba198	0.19885862
26	0x3e0916a9	0.1338755
27	0x3e8f5335	0.2799317
28	0x3da4c08e	0.080445394
29	0xbef6cfae	-0.48205322
30	0x3dcc6815	0.099807896
31	0xbe75435a	-0.23951474
32	0xbe514dab	-0.20439784
33	0x3e901356	0.28139752
34	0xbe95db53	-0.29268894
35	0xbdb86a84	-0.09004691
36	0xbd839e91	-0.064267285
37	0x3e68db29	0.22739853
38	0x3e8eaad5	0.2786471
39	0x3e73c336	0.23804936
40	0xbca15ae8	-0.019696668
41	0x3d817853	0.06321778
42	0x3d2fc8cc	0.042916104
43	0xbbf89c9c	-0.0075870287
44	0x3d8a1334	0.06741944
45	0xbedc7492	-0.43057686
46	0x3e8fb1ce	0.28065342
47	0xbe46210e	-0.19348547
48	0xbcd2f4a2	-0.025751416
49	0x3ea3227c	0.31862247
50	0xbcf961df	-0.030442176
51	0x3d95e501	0.0731907
52	0x3d86e403	0.065864585
53	0x3e2da210	0.16956353
54	0xbe8a3887	-0.26996252
55	0xbbf06671	-0.0073364307
56	0x3d11da0a	0.03560833
57	0xbbb1bda9	-0.0054242206
58	0x3ec00fa7	0.37511942
59	0x3dfc780f	0.12327587
60	0xbd31f6d3	-0.04344828
61	0x3f0c7046	0.54858816
62	0x3e10fb8b	0.14158456
63	0x3e0524af	0.13002275
64	0x3e6c4d58	0.2307638
65	0xbe936ae1	-0.2879248
66	0x3ecf8701	0.40532687
67	0xbe9f378f	-0.31097075
68	0x3e64d81e	0.22348067
69	0xbe7680ab	-0.2407252
70	0xbd99073c	-0.07472083
71	0xbe1c0db1	-0.15239598
72	0xbd3f84cd	-0.046757508
73	0x3dbb1fae	0.09136902
74	0x3bdc93c0	0.0067314804
75	0xbefeec31	-0.49789575
76	0xbe504328	-0.20338118
77	0xbc525602	-0.012837889
78	0x3cf319f3	0.02967546
79	0x3e33f897	0.17575298
80	0x3e96ad28	0.29428983
81	0xbc1e0793	-0.0096453605
82	0xbe38cdcb	-0.18047254
83	0xbdec931e	-0.11551498
84	0xbe6818cd	-0.22665711
85	0xbd0beb11	-0.034159724
86	0x3eb33b0e	0.35005993
87	0xbb95e069	-0.004573871
88	0x3e6d8066	0.23193511
89	0x3cb6d0ba	0.022316325
90	0x3ebefe98	0.37303615
91	0x3ed74207	0.42042562
92	0xbe58bf7a	-0.21166793
93	0xbf14a4a5	-0.5806373
94	0xbe998158	-0.29981494
95	0x3dca5f27	0.0988143
96	0x3e1ba5cb	0.15199964
97	0x3e853833	0.2601944
98	0xbdddfe53	-0.10839524
99	0x3e3df620	0.1855092
100	0x3cbbb287	0.022912277
101	0xbdfd4137	-0.12365954
102	0x3e0f3a58	0.139871
103	0x3e1ad0b0	0.1511867
104	0xbd068ba5	-0.03284802
105	0xbe96a0ec	-0.2941965
106	0xbe5bf279	-0.21479215
107	0xbec0908a	-0.37610275
108	0x3e13c26e	0.14429638
109	0x3e8be4b1	0.27322915
110	0xbe942c88	-0.28940225
111	0x3e213f75	0.15746863
112	0x3e28f98d	0.16501446
113	0x3e95c130	0.29248953
114	0x3eadf174	0.33973277
115	0x3d9cd4c9	0.07657773
116	0x3db9dabb	0.09074923
117	0xbf4cc29a	-0.7998444
118	0xbd05b343	-0.03264166
119	0x3f14c565	0.581137
120	0x3ed347f8	0.41265845
121	0x3dac1b1d	0.08403609
122	0xbe3ebbc7	-0.18626319
123	0x3d73a24d	0.059480954
124	0x3dea0445	0.114265956
125	0xbd81f83d	-0.06346176
126	0xbea20b47	-0.3164923
127	0xbdc891c6	-0.09793429
128	0x3e9cfbb8	0.30660796
129	0x3caf542b	0.02140244
130	0xbe6a1eb0	-0.22863269
131	0x3ea62707	0.3245165
132	0x3b14df85	0.0022716236
133	0xbea94535	-0.33060613
134	0xbde34e5a	-0.11098929
135	0x3d34f68a	0.04418043
136	0xbebbf935	-0.36713567
137	0xbf26294a	-0.6490675
138	0xbec9a0aa	-0.3938039
139	0xbeee2a01	-0.4651642
140	0xbb890f96	-0.004182766
141	0xbd8e67c3	-0.06953385
142	0x3e2ee59d	0.17079778
143	0x3ea5c108	0.32373834
144	0x3eac7dfe	0.33689874
145	0x3f0be981	0.54653174
146	0xbed19258	-0.40931964
147	0x3d0eb63e	0.03484177
148	0xbf1581de	-0.58401287
149	0x3e1ee78d	0.15518017
150	0x3f0eba28	0.557528
151	0xbc142f8c	-0.009044539
152	0x3d4b1c49	0.04958752
153	0x3e9a855a	0.30179864
154	0x3e1d09c7	0.15335761
155	0xbbd1b173	-0.0063993274
156	0xbd8fedaa	-0.07027753
157	0x3e0622c7	0.13099204
158	0x3ddc6a18	0.10762423
159	0xbeae2ba5	-0.34017673
160	0xbe22240e	-0.15834066
161	0xbc6e7795	-0.014554878
162	0x3f37d7d5	0.7181371
163	0x3ef1b0a6	0.47205085
164	0xbd093053	-0.03349335
165	0xbe0e1ae9	-0.13877453
166	0x3c8ce526	0.01719911
167	0xbee848e7	-0.4536812
168	0x3f20417f	0.6259994
169	0x3e64fd5f	0.22362278
170	0x3d1ec382	0.03876067
171	0x3e7424d4	0.23842174
172	0xbe6f3c84	-0.23362929
173	0xbdad0c0e	-0.08449565
174	0x3df9d62a	0.12199052
175	0xbd895c93	-0.0670711
176	0xbe24614a	-0.16052738
177	0x3d9527de	0.07282995
178	0x3e4e6281	0.20154764
179	0x3e83db81	0.25753406
180	0x3df0c5f4	0.117565066
181	0xbd1bdd67	-0.038052943
182	0xbe5ff9db	-0.21872656
183	0x3d53d0d3	0.051712822
184	0xbd2686ab	-0.040655773
185	0xbdc8ea93	-0.098103665
186	0xbd6711b9	-0.056413386
187	0x3e8d6f2a	0.27623874
188	0xbe344df7	-0.17607866
189	0x3da62a0a	0.08113487
190	0x3efa118a	0.48841506
191	0x3d583840	0.05278802
192	0xbe123edd	-0.14281793
193	0x3e7b14e1	0.24519683
194	0xbdf10fa7	-0.117705636
195	0x3f458029	0.7714868
196	0xbe4d6b2d	-0.20060416
197	0xbe58c98c	-0.21170634
198	0xbee08fbf	-0.4385967
199	0x3c32c17d	0.010910389
200	0xbd580dec	-0.052747652
201	0xbe4bfff6	-0.1992186
202	0x3e95ccc4	0.29257786
203	0xbd130906	-0.035897277
204	0xbf036ab3	-0.51334685
205	0xbf714061	-0.9423886
206	0x3eb0b99f	0.34516618
207	0xbec68b7a	-0.38778287
208	0x3ed62f50	0.41832972
209	0xbe13c8e4	-0.14432102
210	0xbd8727c8	-0.065993845
211	0xbdc46f16	-0.095915005
212	0x3e71256c	0.23549432
213	0xbe7599bb	-0.23984425
214	0x3f3507d5	0.70715076
215	0xbe51a32c	-0.20472401
216	0xbe0d99b1	-0.1382816
217	0xbe5d34c6	-0.21602163
218	0xbc989ce5	-0.0186295
219	0xbf17b042	-0.59253323
220	0x3ed725a7	0.42020914
221	0xbe11ae27	-0.1422659
222	0xbd826304	-0.06366542
223	0xbe43c291	-0.1911719
224	0x3e2c1dab	0.16808192
225	0x3e124026	0.14282283
226	0x3d9cac0b	0.07650002
227	0xbedd467b	-0.43217835
228	0xbe0b17ff	-0.13583373
229	0x3db3e848	0.087845385
230	0xbd944468	-0.0723961
231	0x3e12bf21	0.14330722
232	0xbe2a9b30	-0.16660762
233	0x3d714036	0.058899127
234	0xbebba537	-0.36649486
235	0x3eaccb66	0.3374893
236	0xbf257be7	-0.64642185
237	0x3e351ae4	0.17686039
238	0xbd15be6c	-0.036558554
239	0x3e84d3e1	0.259429
240	0x3e156d64	0.1459251
241	0xbdee621d	-0.116398074
242	0xbe9f031d	-0.31057063
243	0xbdf51452	-0.119667664
244	0x3d274756	0.040839516
245	0x3de751b3	0.1129488
246	0xbd1b46b7	-0.037909236
247	0x3e553768	0.20821917
248	0x3c0d231f	0.008614331
249	0xbe362f3c	-0.17791456
250	0x3e2c7e56	0.16845068
251	0x3e02bab2	0.12766531
252	0xbea24157	-0.31690475
253	0xbe209b3c	-0.15684217
254	0x3e3207d6	0.17385802
255	0xbe1dd46e	-0.15413067

network_body._body_endoder.seq_layers.0.bias f4 [128]
0	0xbbd4e264	-0.0064967144
1	0xbad2caaf	-0.0016082133
2	0xbafc1822	-0.0019233266
3	0x3bc900e1	0.006134138
4	0xbc4e9660	-0.012609094
5	0x3b87f753	0.0041493564
6	0x3b06a684	0.0020546028
7	0x3b5a115e	0.0033274512
8	0xbc0c65d5	-0.0085692005
9	0x3b01ca7d	0.001980453
10	0xbc2499fe	-0.01004648
11	0xbaeb6bbd	-0.0017961186
12	0xba805944	-0.0009792228
13	0xbc1f6bff	-0.009730338
14	0x3c477a2e	0.012175126
15	0x3bd4c93e	0.0064937165
16	0x3b4acdcb	0.0030945416
17	0xbbaa4f95	-0.005197475
18	0xbabd1d5a	-0.0014428303
19	0xbc80f138	-0.015740022
20	0x3abf2d49	0.001458564
21	0xbb8799e3	-0.004138218
22	0xbc2a15ac	-0.010381144
23	0xbbae3be2	-0.005317197
24	0x3b4c191c	0.0031142896
25	0x3b9b6704	0.004742505
26	0xbbd71c01	-0.0065646176
27	0xbb6031cd	-0.003420937
28	0xbbcc9a8c	-0.0062440094
29	0xbb8b5fcd	-0.0042533637
30	0x3b38cb26	0.0028197258
31	0xbcc3f65b	-0.023921182
32	0x3a78e071	0.00094938936
33	0x3b552310	0.003252212
34	0xbbea0185	-0.0071412944
35	0xba49ed45	-0.00077028974
36	0xbc4b935a	-0.012425268
37	0xbb2622a7	-0.0025350244
38	0x3c35703b	0.011074121
39	0xbb70b87c	-0.0036731055
40	0xbbeee27f	-0.007290184
41	0xbbfbe4f7	-0.007687207
42	0xbc565e46	-0.013084
43	0xbbc766e5	-0.006085264
44	0xbc23e8cc	-0.010004234
45	0xbb95b353	-0.0045684963
46	0xbc3c5892	-0.011495726
47	0xbbca527f	-0.006174385
48	0x3a5d58fe	0.0008443742
49	0xbb81534a	-0.0039466964
50	0xbab48454	-0.0013772347
51	0xbc01605c	-0.007896509
52	0xbbf8a08b	-0.0075874976
53	0xbb80bbc6	-0.0039286343
54	0xbbf488e2	-0.0074626068
55	0xbbb6be41	-0.0055768793
56	0xbbc5f02a	-0.0060405927
57	0xbb8626a7	-0.004093963
58	0xbb999daa	-0.0046879845
59	0x3c156be0	0.009119958
60	0x3bd29e97	0.006427597
61	0xbc10ffd4	-0.008850057
62	0xbba85d87	-0.0051381025
63	0x3bbb7196	0.0057203276
64	0x3c6db11e	0.01450756
65	0xbc82d3e2	-0.015970174
66	0x3bbc89c5	0.005753728
67	0xbabc6c4c	-0.0014375537
68	0x3bc6f50e	0.0060716933
69	0x3c621b24	0.013800416
70	0x3bf27701	0.0073994403
71	0xbbee85c8	-0.0072791316
72	0x3b5081e0	0.0031815693
73	0xbc9ec4a1	-0.01938087
74	0x3bded8d4	0.0068007503
75	0xba03a0cf	-0.0005021216
76	0xbb722217	-0.0036946589
77	0x3c0e50c4	0.008686248
78	0x3b13dd77	0.0022562423
79	0xbc0717be	-0.008245407
80	0x398c940c	0.00026813184
81	0xbbba1d3d	-0.005679755
82	0x3b13ef1b	0.0022572938
83	0xbb323d7d	-0.0027197294
84	0x3b038cbb	0.0020072896
85	0xba5f3ad2	-0.000851554
86	0x3acaf14c	0.0015483289
87	0xbb3e792a	-0.0029063919
88	0x3aeba8a7	0.001797934
89	0xbc2a710f	-0.010402932
90	0xbbca5820	-0.006175056
91	0xbb481378	-0.0030529182
92	0xbc5dfe3b	-0.013549383
93	0x3ba55960	0.0050460547
94	0xbbeae2ca	-0.0071681486
95	0x3c814a9f	0.015782652
96	0xbc4c9f7d	-0.012489197
97	0xbc52de16	-0.012870332
98	0xbb08b8b6	-0.002086205
99	0xbbfa001b	-0.007629407
100	0xbb8ec5f5	-0.0043570944
101	0xbb8bf361	-0.0042709564
102	0x3c26c028	0.01017765
103	0xbc195984	-0.009359721
104	0xbc225f7d	-0.0099104615
105	0x3b7a51e0	0.0038195774
106	0xbc423894	-0.01185431
107	0x38977381	7.2217554e-05
108	0x3b45704d	0.003012675
109	0xbb6da8af	-0.0036263873
110	0xbc16562d	-0.009175819
111	0xbb970367	-0.00460856
112	0x3a5c3b13	0.0008401137
113	0xbbc60b52	-0.00604383
114	0xbc049f91	-0.008094684
115	0x38cdb37e	9.808595e-05
116	0x3c2324b5	0.009957482
117	0x3ab489e3	0.0013774004
118	0xbc77d1f5	-0.015125741
119	0x3b773d54	0.0037725763
120	0x3b0c0ed7	0.002137115
121	0xbbabb94b	-0.0052405945
122	0xbb6157a5	-0.0034384516
123	0xbbcc1a1c	-0.0062286984
124	0x3ba434c2	0.005011172
125	0x3c34af1a	0.011028076
126	0xbc31b359	-0.0108459825
127	0xbbf151e6	-0.0073644994

network_body._body_endoder.seq_layers.2.weight f4 [128, 128]
0	0x3dfb96e5	0.1228464
1	0x3dbca346	0.092108294
2	0xbdda48f2	-0.106584445
3	0x3cf58829	0.029972153
4	0xbe00ccdc	-0.12578148
5	0x3daaf6f0	0.08347881
6	0x3db198d5	0.086717285
7	0x3d762798	0.060096353
8	0x3d78fafb	0.06078623
9	0xbd527309	-0.051379237
10	0xbd8261a6	-0.06366281
11	0x3cddfe30	0.027098745
12	0xbe07bc38	-0.13255394
13	0xbe1e6ade	-0.15470454
14	0x3dd25737	0.10270541
15	0x3bd1e3f1	0.0064053466
16	0x3e079b1d	0.13242765
17	0x3d32fc3e	0.04369759
18	0xbe267b39	-0.16257943
19	0x3daca739	0.08430333
20	0xbe73d9a0	-0.23813486
21	0xbd2e5983	-0.042565834
22	0xbd5eaf86	-0.05436661
23	0x3dda68b5	0.106645025
24	0x3c9a3e64	0.018828578
25	0xbe7c6e8d	-0.24651547
26	0x3d0604e3	0.032719504
27	0xbcb6b920	-0.022305071
28	0xbd7fdb14	-0.06246479
29	0xbb71c2e9	-0.0036889857
30	0x3e1ddc9a	0.15416184
31	0xbe065cd4	-0.13121349
32	0xbdf2aac1	-0.11848975
33	0xbdc3f30b	-0.09567841
34	0xbc166397	-0.0091790175
35	0xbd6a6984	-0.057229534
36	0x3cd2f81c	0.025753073
37	0x3e0ca816	0.13735995
38	0xbd8f9ece	-0.070127115
39	0xbd1fdc6d	-0.039028574
40	0xbe2f1312	-0.17097118
41	0x3db221fb	0.086978875
42	0x3dcb7daa	0.09936078
43	0xbd493d76	-0.04913088
44	0x3c85787e	0.016292807
45	0xbddd189d	-0.1079571
46	0x3d672bd6	0.05643829
47	0x3da14b61	0.078757055
48	0xbde3d9cd	-0.111255266
49	0x3da6d1ec	0.08145508
50	0xbdd3ed2e	-0.10347973
51	0xbe552ab3	-0.2081707
52	0x3d8b63e2	0.068061605
53	0x3cd925b6	0.02650724
54	0x3d202a49	0.039102826
55	0xbdfdac8c	-0.12386426
56	0xbdfe1c33	-0.12407722
57	0x3e3e72be	0.18598458
58	0x3d401951	0.046899144
59	0xbd5cd6c3	-0.05391575
60	0x3c52e134	0.012871075
61	0x3b7ad000	0.003827095
62	0xbdfde587	-0.123972945
63	0x3d834731	0.06410063
64	0x3ce583c7	0.028016938
65	0xbd830f62	-0.063994184
66	0x3d872412	0.06598677
67	0x3dbbd1e6	0.09170894
68	0xbde2e0fa	-0.11078067
69	0xbde4c9f5	-0.11171333
70	0xbe45990d	-0.19296665
71	0xbdd74482	-0.10511114
72	0x3cbd7713	0.023128068
73	0x3dc5783a	0.09642072
74	0xbceaef17	-0.02867846
75	0x3e2b37f8	0.16720569
76	0x3d0a0069	0.033691797
77	0x3d9cbc00	0.07653046
78	0xbddec6dd	-0.10877774
79	0x3c04e76b	0.008111815
80	0x3df18cb0	0.11794412
81	0x3deaaadd	0.11458371
82	0xbc3d4a9a	-0.011553431
83	0xbc232e1b	-0.009959723
84	0xbd293cee	-0.041317873
85	0xbd57cd19	-0.05268583
86	0x3c855b98	0.016279027
87	0x3c130407	0.008973128
88	0x3cc8b271	0.02449915
89	0x3b82beba	0.0039900215
90	0xbbcd5d37	-0.0062672156
91	0x3d42da73	0.04757161
92	0xbdd91f04	-0.10601619
93	0x3de52658	0.11188954
94	0xbdf6699b	-0.120318614
95	0xbd01f219	-0.031725023
96	0x3dfa5228	0.12222701
97	0x3d87f322	0.06638171
98	0x3d58b2eb	0.052905004
99	0xbccaaa2b	-0.024739346
100	0xbda3054d	-0.079599954
101	0x3e2e52db	0.17023794
102	0x3ce552a0	0.0279935
103	0x3d9ca930	0.076494575
104	0x3d0c43ef	0.034244474
105	0xbdd20f20	-0.10256791
106	0xbc558a0c	-0.013033401
107	0xbdd4db07	-0.10393339
108	0x3d2a7d9d	0.0416237
109	0x3d2eb50b	0.042653125
110	0x3deac9ca	0.114642695
111	0x3d685455	0.05672105
112	0x3e1c7e6c	0.15282601
113	0xbe163c4b	-0.14671437
114	0x3c80063f	0.015627978
115	0x3e154f78	0.14581096
116	0x3bf368d4	0.007428268
117	0x3d749087	0.059708145
118	0x3d8c107e	0.06839083
119	0xbd781660	-0.060568213
120	0xbcbee42c	-0.02330216
121	0xbd5cc47c	-0.05389832
122	0x3c9aab03	0.018880373
123	0xbd593130	-0.053025424
124	0x3d1fde81	0.039030556
125	0xbdd6e310	-0.104925275
126	0x3bf910a2	0.0076008597
127	0x3d2d8a3d	0.042368162
128	0xbdc67524	-0.096903116
129	0xbd983bef	-0.074333064
130	0x3dc99205	0.09842304
131	0x3cc54db0	0.024084896
132	0x3e07c309	0.13257994
133	0x3d9c6606	0.07636647
134	0xbe44abfb	-0.1920623
135	0xbd759ac2	-0.05996204
136	0x3e6bcf82	0.23028377
137	0xbcef04bb	-0.02917706
138	0x3e3a7cca	0.18211666
139	0xbdc22027	-0.09478789
140	0x3ddd8f6d	0.10818372
141	0xbd765187	-0.060136344
142	0x3cbaaf40	0.022788644
143	0xbcab980c	-0.020946525
144	0xbe05ff4f	-0.13085674
145	0x3d7c29b9	0.061563227
146	0xbd255fcf	-0.040374573
147	0x39332bb4	0.00017087051
148	0xbcc02f66	-0.023460101
149	0x3bd7201c	0.006565107
150	0x3dad5c2b	0.08464845
151	0x3d45c40c	0.048282668
152	0xbdf04bf0	-0.11733234
153	0x3bd66d0b	0.0065437607
154	0xbdde1fdc	-0.108459204
155	0x3e37f0cb	0.17962949
156	0xbd67ac0b	-0.056560557
157	0x3be9590f	0.0071212123
158	0xbdc42d49	-0.0957895
159	0x3d4b2c56	0.04960283
160	0x3d5f0079	0.05444381
161	0x3e4aa299	0.19788589
162	0xbcae9485	-0.021311054
163	0xbd6f5202	-0.058427818
164	0x3cca3cd7	0.024687214
165	0xbce29aa2	-0.027661625
166	0x3c9dde4a	0.019271035
167	0x3c108d7e	0.008822797
168	0x3db0797b	0.086169206
169	0x3e169c73	0.14708118
170	0x3d929769	0.071577854
171	0xbc8f4ff3	-0.017494177
172	0xbc409148	-0.011753388
173	0x3d82a7cf	0.06379663
174	0x3dd30e02	0.10305406
175	0xbe2f1c81	-0.17100717
176	0xbd75ff8e	-0.06005817
177	0xbd211172	-0.039323278
178	0xbc987cf9	-0.01861428
179	0xbdd3d95f	-0.103441946
180	0x3d0dfc0b	0.034664195
181	0x3d24d07d	0.040237892
182	0xbcc02cb0	-0.023458809
183	0x3d0d7e33	0.03454418
184	0x3afd9966	0.0019348084
185	0xbe2b9a0d	-0.16757984
186	0x3d798eb3	0.060927104
187	0x3dcddb75	0.10051624
188	0x3dd9a6a7	0.106274895
189	0x3d47326c	0.04863207
190	0xbe139ad2	-0.14414528
191	0x3e36c8c6	0.17850026
192	0xbd8b3255	-0.067967094
193	0x3ccf719e	0.025322732
194	0x3dc64b4e	0.09682332
195	0x3cee2825	0.029071877
196	0xbd31bc4c	-0.043392465
197	0x3b9c1f7e	0.0047644963
198	0x3d4c1caf	0.049832042
199	0xbd41b312	-0.047289915
200	0x3c79d86c	0.015249353
201	0x3dc7ce0b	0.097560965
202	0x3d734cb2	0.059399314
203	0xbdecda4a	-0.11565073
204	0xbd565a48	-0.052332193
205	0xbc8859c9	-0.016644375
206	0x3ca46d94	0.020071782
207	0xbd947dc9	-0.07250554
208	0x3dc593f2	0.09647359
209	0x3d9bc510	0.07605946
210	0xbdb43d4c	-0.08800754
211	0x3df23316	0.1182615
212	0x3d1571e6	0.036485575
213	0xbe4637e8	-0.19357264
214	0x3ca6f8df	0.020382343
215	0x3d364883	0.044502746
216	0x3e87d35b	0.2652844
217	0x3d861bc6	0.06548266
218	0x3ca31f11	0.019912275
219	0x3d7fb6a4	0.06243004
220	0x3cad1853	0.021129763
221	0x3dfa71b8	0.122287214
222	0xbd99a015	-0.07501236
223	0x3dccd15d	0.100008704
224	0xbd1c8739	-0.038214896
225	0x3de1cefb	0.110258065
226	0xbdc0d166	-0.094149396
227	0xbdc84694	-0.09779087
228	0xbd37f0d9	-0.044907425
229	0xbdf8e40d	-0.12152872
230	0xbd66ee04	-0.056379333
231	0xbdff2908	-0.12458998
232	0x3c6d4a6c	0.014483076
233	0x3d20576e	0.03914588
234	0x3d9928f4	0.07478514
235	0x3da2d9bf	0.07951688
236	0x3ce3c274	0.027802683
237	0xbd832ac0	-0.06404638
238	0xbe0be1b3	-0.13660316
239	0x3d762768	0.060096174
240	0xbe052eb5	-0.13006099
241	0xbdc419f9	-0.095752664
242	0x3dcc5db4	0.0997881
243	0xba0d4d48	-0.0005390239
244	0x3d72060c	0.059087798
245	0xbd16007b	-0.036621552
246	0x3ae37e34	0.0017356337
247	0xbd468207	-0.048463847
248	0xbdd89944	-0.10576108
249	0x3d3f6c58	0.046734184
250	0xbe0f7f9e	-0.14013526
251	0x3dfdbf56	0.1239001
252	0x3daf72f2	0.08566846
253	0x3ac6b1d0	0.0015159193
254	0x3df90773	0.12159624
255	0xbd81c1a1	-0.0633576

network_body._body_endoder.seq_layers.2.bias f4 [128]
0	0xbbe38f68	-0.0069445856
1	0xbad05d99	-0.0015897035
2	0xbb5d699f	-0.003378488
3	0xb9a24195	-0.0003094791
4	0xbb0f74de	-0.0021889727
5	0xbc46d5a8	-0.012135901
6	0xbb9dc270	-0.0048144385
7	0xbc195666	-0.009358978
8	0x380e344d	3.3904147e-05
9	0xbbba0e44	-0.00567797
10	0xbb990913	-0.004670271
11	0xbb327780	-0.0027231872
12	0xbc1b31d5	-0.00947233
13	0x3b965d2a	0.0045887427
14	0xbb830e3a	-0.0039994987
15	0xbc2fe54b	-0.01073582
16	0x3b80ff0c	0.003936654
17	0x3bd1bed7	0.0064009237
18	0xba2389f7	-0.0006238515
19	0xbb0291f7	-0.0019923428
20	0xbbdd6af2	-0.0067571336
21	0xbb110f5b	-0.0022134397
22	0xbb965c62	-0.0045886496
23	0xbb81ecd7	-0.003965001
24	0xbb8f4d4d	-0.0043732286
25	0xbb847e60	-0.0040433854
26	0xbbe1ab4b	-0.006886875
27	0x39ed2c84	0.0004523733
28	0xbb840f4e	-0.004030145
29	0x3aa913fa	0.001289963
30	0x3a9a4d7c	0.001177236
31	0xbc07f43e	-0.008297978
32	0xbbd19fb0	-0.00639721
33	0xba0899cd	-0.00052109064
34	0x38ed88ac	0.00011326498
35	0xbb6bf456	-0.003600379
36	0xbb2919d1	-0.0025802741
37	0xbbc8e33d	-0.0061306045
38	0xba80f60c	-0.0009838953
39	0x395a0ad0	0.00020794128
40	0x3bd83f04	0.006599309
41	0xbc11a242	-0.008888783
42	0xbba02112	-0.004886755
43	0x39032792	0.00012507875
44	0xbbb789a0	-0.005601123
45	0xbc33b59f	-0.010968595
46	0x3b0ee9ac	0.002180676
47	0x3b0fda9e	0.0021950374
48	0xbb1737dd	-0.0023074069
49	0xbc18f3dd	-0.009335485
50	0xbbaa07f8	-0.005188938
51	0x3b47761e	0.0030435394
52	0xbbe9fa4a	-0.0071404325
53	0xbb49b6f2	-0.003077921
54	0xbbe6a1dc	-0.007038338
55	0x3b9a751b	0.004713667
56	0xba947ee6	-0.0011329323
57	0x3a1f944b	0.0006087466
58	0x3b9c6a35	0.004773403
59	0xba88feec	-0.0010451949
60	0xbc312ee6	-0.010814404
61	0xbb1e9019	-0.0024194776
62	0x3a21703f	0.00061583886
63	0xba495adb	-0.000768108
64	0xba90e37b	-0.0011054123
65	0xbb0b6855	-0.0021271904
66	0xbc0e868c	-0.008699071
67	0xbb685125	-0.0035448757
68	0xbbdb9097	-0.006700586
69	0xbb8f848d	-0.004379815
70	0xbb8e528e	-0.0043433374
71	0xbbd38141	-0.0064546173
72	0x3b399925	0.002832004
73	0xbbb7abe6	-0.0056052087
74	0xbb346000	-0.002752304
75	0xba00d308	-0.00049142586
76	0xbb85c57f	-0.0040823813
77	0xbc7a880d	-0.015291226
78	0xb9a3e069	-0.0003125698
79	0x394deda9	0.00019638859
80	0xba9cd00d	-0.001196386
81	0x3aea2ece	0.0017866732
82	0x3ad3f793	0.0016171805
83	0xbb497d9f	-0.0030745042
84	0xbbeda532	-0.007252359
85	0xbc1491c9	-0.009067961
86	0xba3ef257	-0.0007284036
87	0x391e82b1	0.0001511674
88	0xbaccdce8	-0.00156298
89	0xb9dbd8db	-0.00041932505
90	0xbb5c6085	-0.0033626866
91	0xbb61daba	-0.0034462647
92	0xbc2c5221	-0.010517628
93	0xbbf61db5	-0.0075108656
94	0xbb7226dc	-0.0036949432
95	0xb8bbcf5e	-8.95548e-05
96	0xbb7ed8ca	-0.003888654
97	0xbb36b349	-0.0027877858
98	0xbb8109f9	-0.0039379564
99	0xbb95148f	-0.00454957
100	0xbb07bbb2	-0.002071124
101	0xbc16cffc	-0.009204861
102	0xb9a24a34	-0.00030954333
103	0xbcaa3dae	-0.020781364
104	0xbb29fa48	-0.0025936533
105	0xbbb941c4	-0.005653592
106	0xbaaeb7b8	-0.0013329899
107	0xbb8bf5bd	-0.0042712376
108	0x3b2f516f	0.002675142
109	0xbadef456	-0.0017010074
110	0xbc00f69b	-0.007871295
111	0xbbacd096	-0.005273889
112	0xbc228783	-0.009920004
113	0xbcaf1768	-0.021373466
114	0xbb317bf3	-0.0027081936
115	0xbbe38081	-0.006942809
116	0x3b031dc8	0.0020006765
117	0xbafb822f	-0.0019188578
118	0xbc41234e	-0.011788202
119	0xbb814cef	-0.003945939
120	0xbb1f4d57	-0.0024307573
121	0x3c2873f0	0.010281548
122	0x3b1cdd6b	0.0023935686
123	0xbb57e2a6	-0.003294149
124	0xbb96cdb1	-0.004602157
125	0xbae50cd5	-0.0017475138
126	0xbbdfddf9	-0.006831881
127	0xbb7ebc4d	-0.003886956

network_body._body_endoder.seq_layers.4.weight f4 [128, 128]
0	0x3d1caeb9	0.038252566
1	0xbb0ed146	-0.0021792217
2	0xbd77ad7b	-0.06046818
3	0xbe3dc03f	-0.18530367
4	0x3e5f391d	0.2179913
5	0x3dc56d7c	0.09640023
6	0xb99693d1	-0.0002872036
7	0x3d3203f0	0.043460786
8	0x3cd23bdd	0.02566331
9	0xbcb8cd5e	-0.022558864
10	0x3c1426f0	0.009042487
11	0x3e38315a	0.17987576
12	0x3e6232d4	0.22089702
13	0xbe00287e	-0.12515447
14	0xbdc33d7c	-0.095332116
15	0x3d712ab1	0.058878604
16	0x3e43ce18	0.19121587
17	0x3d92097f	0.071307175
18	0x3ce70451	0.0282003
19	0xbdc851f0	-0.09781253
20	0xbdd2148d	-0.10257826
21	0xbc279613	-0.010228652
22	0xbd3218b2	-0.043480583
23	0xbd7c6a02	-0.061624534
24	0x3d55f52d	0.05223577
25	0xbbe3f870	-0.0069571063
26	0xbdcdf96b	-0.10057338
27	0xbdda316a	-0.10653956
28	0xbd9ecc41	-0.07753802
29	0xbdd65e90	-0.10467255
30	0x3c8d49bb	0.017247071
31	0xbd401496	-0.046894632
32	0xbd3da7e9	-0.04630271
33	0xbd491ef5	-0.04910179
34	0xbd12dfc5	-0.035857935
35	0x3cbc9bd4	0.023023523
36	0x3d6ded4d	0.058087636
37	0x3b4cfadb	0.0031277451
38	0x3e5b0c75	0.2139147
39	0x3dbdcbcf	0.09267389
40	0x3c44210d	0.011970771
41	0xbe46dab8	-0.19419372
42	0xbe0eeef4	-0.13958341
43	0xbdf6cb8c	-0.12050542
44	0x3aa6ebfb	0.0012735123
45	0x3dbd39a6	0.09239511
46	0xbdc11d2f	-0.094293945
47	0xbd7d4e33	-0.061842155
48	0xbda93856	-0.08262698
49	0x3df32513	0.11872306
50	0xbd980ad3	-0.074239396
51	0x3b33fcf0	0.0027463995
52	0xbd34ff7d	-0.044188965
53	0x3debbd3d	0.11510704
54	0xbe1c3e25	-0.15258081
55	0x3cff6784	0.03117729
56	0xbe086368	-0.1331917
57	0x3e082f77	0.13299356
58	0x3c29f708	0.010373838
59	0xbce7d9f7	-0.028302176
60	0x3e08f99b	0.13376467
61	0x3d630492	0.05542428
62	0x3d045b7a	0.0323138
63	0xbe28ae23	-0.16472678
64	0x3d2e1b65	0.042506594
65	0x3d89afb4	0.06722966
66	0x3df69835	0.1204075
67	0xbe2ef7b3	-0.17086677
68	0x3d6b965b	0.057516437
69	0x3df5c0d9	0.119996734
70	0x3e3263d5	0.17420895
71	0x3d5be3d8	0.053684086
72	0xbdd6c7eb	-0.1048735
73	0xbdac3229	-0.08408005
74	0x3e1167b3	0.14199714
75	0xbdabbb31	-0.08385313
76	0x3d0b1aab	0.03396098
77	0xbccfe19a	-0.02537613
78	0xbce57327	-0.02800901
79	0xbc8ad526	-0.01694734
80	0xbd84f741	-0.064924724
81	0xbd087797	-0.033317175
82	0xbdc3993b	-0.09550711
83	0xbd1e6f66	-0.038680457
84	0x3dd22b98	0.10262221
85	0x3ca2adf4	0.019858338
86	0x3c3c3b7b	0.011488791
87	0x3dce8bce	0.100852594
88	0x3e0af2a4	0.13569123
89	0xbda10a4b	-0.07863291
90	0xbd882293	-0.066472195
91	0xbc530dcb	-0.0128817065
92	0x3cf31979	0.029675232
93	0xbcf3bd2b	-0.029753288
94	0x3d987a54	0.07445207
95	0x3d6f12a1	0.058367375
96	0xbd03d269	-0.032183085
97	0x3e25d196	0.16193232
98	0x3d7fdbc2	0.062465437
99	0xbd6395e6	-0.055562876
100	0xbc5d248f	-0.013497486
101	0xbd1dca63	-0.03852309
102	0x3cb87933	0.02251873
103	0xbe460264	-0.1933685
104	0x3d6c52b3	0.057696056
105	0xbd7f6b5c	-0.062358245
106	0x3e0c9d31	0.13731839
107	0xbdbf1001	-0.093292244
108	0x3e05593c	0.13022321
109	0xbd3e459f	-0.046453115
110	0xbe3178a2	-0.17331174
111	0xbd410c3d	-0.047130812
112	0x3da545fd	0.0806999
113	0xbe06335a	-0.13105527
114	0x3c2042ff	0.009781598
115	0xbc9fd330	-0.019509882
116	0xbca088a1	-0.0195964
117	0x3d000315	0.03125294
118	0x3da5159e	0.08060764
119	0xbd4fc614	-0.05072601
120	0xbd35cd06	-0.04438498
121	0xbd17a20a	-0.037019767
122	0x3d8f7718	0.07005137
123	0x3a30c633	0.0006743401
124	0x3ddf1284	0.108922035
125	0x3cdea188	0.027176633
126	0xbc53e658	-0.012933336
127	0xbdc53ff6	-0.0963134
128	0x3c381048	0.0112343505
129	0x3a044dd3	0.0005046997
130	0x3d2d803a	0.042358615
131	0xbe057e6e	-0.1303651
132	0xbd290dfc	-0.041273102
133	0xbdea45dd	-0.114391066
134	0xbc00fd78	-0.007872932
135	0x3d503976	0.05083605
136	0xbd9c586e	-0.07634054
137	0x3d86dfd7	0.06585663
138	0x3de83eaf	0.11340081
139	0xbd717e42	-0.0589583
140	0xbe367d39	-0.17821206
141	0x3dd4b196	0.10385434
142	0xbd998a0c	-0.074970335
143	0xbcbcb5bb	-0.023035875
144	0xbe028cb3	-0.12748985
145	0xbdfee154	-0.12445322
146	0x3d530285	0.051516075
147	0xbddde3b2	-0.10834445
148	0x3b8cbfd7	0.00429533
149	0xbc1fed26	-0.00976113
150	0xbd6e0f71	-0.058120195
151	0xbd8dc334	-0.06921998
152	0x3e3189c1	0.17337705
153	0xbd9c1272	-0.07620706
154	0x3d310553	0.04321797
155	0x3e190623	0.14943747
156	0x3cfc02c3	0.030763036
157	0xbddc0caf	-0.10744607
158	0xbd94738c	-0.07248601
159	0x3e14e5c0	0.14540768
160	0x3d832a8c	0.064045995
161	0x3d1f0bd8	0.038829654
162	0xbd45f738	-0.04833147
163	0xbcc0c5c6	-0.023531806
164	0xbc1c3997	-0.009535215
165	0xbc9ea9c9	-0.01936807
166	0xbd5b45da	-0.053533413
167	0xbe2c72b5	-0.16840632
168	0xbd17f6ff	-0.03710079
169	0xbd7dc531	-0.061955635
170	0xbe23e6bd	-0.16005988
171	0x3dde0330	0.10840452
172	0xbc07990d	-0.008276236
173	0xbe291695	-0.1651252
174	0x3c15540f	0.009114279
175	0x3d7eeb57	0.062236156
176	0x3c5f31c2	0.013622703
177	0xbd173a69	-0.03692094
178	0x3dc93abc	0.09825656
179	0xbceefc78	-0.02917312
180	0x3e35bdc2	0.17748168
181	0xbd9deb04	-0.07710841
182	0xbdaaced5	-0.08340231
183	0xbb335f62	-0.0027370085
184	0xbdd400c4	-0.103517085
185	0xbda3ac62	-0.07991864
186	0x3bfdca1e	0.0077450415
187	0x3e54c48f	0.20778106
188	0xbc562957	-0.01307138
189	0x3d52c41e	0.051456563
190	0xbcb0a9f1	-0.02156541
191	0x3ddf2b86	0.10896973
192	0xbca5c893	-0.020237243
193	0xbcc9da35	-0.024640182
194	0x3d804aef	0.062642924
195	0x3ddb2cfd	0.1070194
196	0x3df45f43	0.11932232
197	0xbd812d76	-0.06307499
198	0xbe408b4c	-0.18803138
199	0xbc5fa8c5	-0.013651078
200	0xbe13d2d6	-0.14435896
201	0x3dccd68f	0.10001861
202	0xbd98e8ce	-0.07466279
203	0xbd950c15	-0.07277695
204	0x3e0a3bfc	0.13499445
205	0xbc93fd22	-0.018065039
206	0xbcccf334	-0.025018312
207	0xbe1967cf	-0.14981006
208	0x3c6964db	0.014245237
209	0xbd0b2e53	-0.033979725
210	0xbdb3fbfa	-0.08788295
211	0xbd73eda0	-0.05955279
212	0x3d8fbba2	0.0701821
213	0x3dfb5e51	0.12273849
214	0x3db6d90a	0.08928116
215	0xbc6fd300	-0.014637709
216	0xbd413eb8	-0.047178954
217	0xbddd79ef	-0.108142726
218	0xbdcdf5a6	-0.10056619
219	0x3defc0f9	0.117067285
220	0x3d1c01ae	0.03808754
221	0xbd1a4bb1	-0.03766984
222	0xbca84699	-0.020541476
223	0xbdc4a79d	-0.09602282
224	0xbe0f95c6	-0.14021978
225	0x3c81f512	0.015863929
226	0x3dba5fa8	0.09100276
227	0x3d5ef032	0.054428287
228	0xbda71661	-0.08158565
229	0xbdfb8b5b	-0.12282439
230	0x3e05c2f5	0.13062651
231	0x3d6d98b1	0.058006946
232	0x3d6d260a	0.057897605
233	0xbd5a098c	-0.05323176
234	0xbd88c481	-0.06678105
235	0x3e095aa1	0.13413478
236	0x3e354027	0.17700253
237	0xbe3e51e1	-0.18585922
238	0x3e3ac7d4	0.18240291
239	0xbcc0ecc3	-0.023550397
240	0x3b752a9b	0.0037409428
241	0x3e0481f0	0.12940192
242	0xbcf5d4e3	-0.030008739
243	0xbddff867	-0.10936051
244	0xbcb3e0ee	-0.02195784
245	0x3d8778bc	0.06614825
246	0xbd15b34f	-0.036547955
247	0x3e15efb5	0.14642222
248	0x3cc85e73	0.0244591
249	0xbe16c306	-0.14722833
250	0xbda3eb34	-0.08003846
251	0x3e1b3c67	0.1515976
252	0xbcf59639	-0.029978858
253	0xbe372cde	-0.17888209
254	0xbce603ac	-0.028077923
255	0xbd807e5e	-0.06274103

network_body._body_endoder.seq_layers.4.bias f4 [128]
0	0xbaf873de	-0.001895543
1	0xbc1a7001	-0.009426118
2	0xbbef27b3	-0.0072984337
3	0xbb16061c	-0.0022891825
4	0xbab5a005	-0.0013856894
5	0xbb35bb66	-0.0027730106
6	0xbaaa0664	-0.0012971875
7	0xba39462c	-0.00070676464
8	0xbc15734b	-0.009121726
9	0xbc0538cd	-0.008131218
10	0x3bed5a46	0.0072434274
11	0xbb28a733	-0.0025734424
12	0xbc95e174	-0.018295981
13	0x3902ac98	0.00012462062
14	0xbbc2f6f0	-0.0059498474
15	0x3c266176	0.010155072
16	0x3c660b2f	0.014040752
17	0x3c4d0376	0.012513032
18	0xbb6b7d43	-0.0035932816
19	0x3bbd170c	0.0057705697
20	0xbc98bbfe	-0.01864433
21	0xbb035776	-0.0020041144
22	0x3acd8166	0.0015678823
23	0xb986a7ba	-0.00025683438
24	0xbb532187	-0.0032216029
25	0xbb7309d6	-0.003708472
26	0xbb2597a5	-0.002526739
27	0xbb0a6f23	-0.0021123372
28	0x3b7a7fb3	0.0038223087
29	0xbaa59d5c	-0.0012635398
30	0x3ac1a0c9	0.0014772649
31	0x3c310193	0.010803598
32	0xbb8297e0	-0.00398539
33	0xbb901744	-0.0043973047
34	0xbbe9e80a	-0.007138257
35	0xbb48b527	-0.0030625553
36	0xbbb97a46	-0.005660328
37	0xbb307069	-0.002692247
38	0xbaf59697	-0.0018736896
39	0x3bff7efa	0.007797119
40	0x3ba84fcb	0.005136465
41	0x3abee359	0.0014563604
42	0xbc607efa	-0.013702149
43	0x3adc727a	0.0016818785
44	0xbb46cc3e	-0.003033414
45	0x3c641713	0.013921517
46	0xbc78f674	-0.015195478
47	0xbba97951	-0.0051719327
48	0x3ad144b1	0.0015965906
49	0x383ad7c0	4.454679e-05
50	0xbb8c3967	-0.004279304
51	0x3a6ac368	0.00089555094
52	0x3a774b59	0.000943353
53	0xba1fad9d	-0.0006091239
54	0x39af4bd9	0.00033435112
55	0xba9762d3	-0.0011549838
56	0x3a5012f0	0.0007937392
57	0x3b3dc7ed	0.0028958276
58	0x391d098e	0.00014976246
59	0x3a25be0d	0.000632257
60	0x3c4dbaf3	0.012556779
61	0xbb3dde89	-0.0028971753
62	0xbbcd2a6d	-0.006261161
63	0x3978c594	0.00023724727
64	0xb9d9fae3	-0.0004157639
65	0xbb868bd4	-0.0041060243
66	0xbb9e837b	-0.004837451
67	0xbb637aa4	-0.003471055
68	0xbae64ccb	-0.0017570494
69	0xbbba74d2	-0.0056901956
70	0xbcbeac62	-0.023275558
71	0xbb505b8d	-0.003179285
72	0xbc0749c4	-0.008257333
73	0xbb9ae8dc	-0.004727466
74	0xbb1ca507	-0.0023902075
75	0x398d7fc7	0.00026988817
76	0x39a8e3df	0.00032213234
77	0xba88841e	-0.001041535
78	0x3c63c1a0	0.013901144
79	0xbb3e081d	-0.0028996535
80	0x3a9cc0eb	0.001195935
81	0x3a44ff77	0.0007514874
82	0xbbdb6775	-0.0066956826
83	0xbacc9a45	-0.0015609941
84	0xbb8e0654	-0.0043342505
85	0xb9881c8b	-0.00025961208
86	0x3b4f4db0	0.0031631999
87	0xba82cab7	-0.0009978627
88	0xba85c6fe	-0.0010206399
89	0x3a8d9e64	0.001080465
90	0x3ab549ed	0.0013831236
91	0x3cccb9ff	0.024991034
92	0xbb8954bc	-0.0041910093
93	0xbbf62e02	-0.007512809
94	0x3b99ab48	0.004689608
95	0xbc25d19a	-0.010120774
96	0xbbbdb72f	-0.0057896595
97	0xbb4c033a	-0.0031129853
98	0xbc08e2cd	-0.008354855
99	0xba8f1b5c	-0.0010918188
100	0xbb266466	-0.0025389432
101	0xbaf9384a	-0.0019013968
102	0xbb58a592	-0.0033057672
103	0x3c2825db	0.010262932
104	0xbc0611c0	-0.008182943
105	0xbc126b33	-0.008936691
106	0x39843800	0.00025218725
107	0xbb9c000f	-0.004760749
108	0xbab723a4	-0.0013972414
109	0xbb0eb3a4	-0.0021774555
110	0xba8affde	-0.0010604819
111	0xbbe219e4	-0.006900059
112	0x3b756ce6	0.0037448942
113	0xbbe6ec1f	-0.007047191
114	0xbb8c84cd	-0.004288292
115	0xbb2f24d0	-0.0026724823
116	0xbc76f80e	-0.015073789
117	0xba2795b1	-0.000639285
118	0xbc2d6923	-0.010584149
119	0xbbfd1157	-0.0077230143
120	0x3bc4aae3	0.0060018166
121	0x3997342b	0.00028839833
122	0x3a3bbc5c	0.00071615516
123	0x391f9e7e	0.00015222465
124	0xbb036e3b	-0.0020054716
125	0xbbc7e9a0	-0.0061008483
126	0xbbc84de4	-0.006112801
127	0x3c5ca72c	0.013467591

action_model._continuous_distribution.mu.weight f4 [1, 128]
0	0x3b848541	0.0040442054
1	0x3b32562e	0.0027212012
2	0x3c48c9cb	0.012255142
3	0x3ca69ada	0.02033751
4	0x3ca0da0e	0.019635227
5	0xbc119587	-0.008885748
6	0x3bf80a1f	0.007569566
7	0x3bc8148a	0.006105964
8	0xba8b1f4c	-0.0010614186
9	0xbab306af	-0.0013658608
10	0x3c6f5fa1	0.014610202
11	0x3bfc7e5b	0.0077054924
12	0xb909a736	-0.00013127629
13	0x3c1b7f41	0.009490789
14	0xbb193c94	-0.0023382055
15	0x3c68922b	0.014195005
16	0x3cc61990	0.024182111
17	0x3d00897d	0.03138112
18	0x3c083d87	0.0083154505
19	0x3cbb4037	0.022857768
20	0x3a6c4c03	0.0009014012
21	0xbc7308b3	-0.014833617
22	0x3c25dbd4	0.010123212
23	0x3c628f12	0.013828056
24	0xbbc7a39c	-0.006092502
25	0xbb8642c2	-0.0040973136
26	0x3c1feb13	0.009760636
27	0x3c4e3879	0.012586706
28	0x3ccceec2	0.025016192
29	0x3c5c5aca	0.01344938
30	0x3c6ab595	0.014325519
31	0xbce567e3	-0.028003639
32	0x3c965479	0.018350827
33	0xbbe9ad35	-0.0071312436
34	0xbce44123	-0.02786309
35	0xbb3feb1d	-0.0029284426
36	0xbc845d37	-0.01615773
37	0x3c787a0b	0.015165816
38	0x3c58a5af	0.013223096
39	0xbc4821ff	-0.012215137
40	0xbc0c842e	-0.008576436
41	0x3ca6dc60	0.020368755
42	0xbaaf5ceb	-0.0013379132
43	0x3ccea20a	0.02522375
44	0xb938fb0d	-0.00017641131
45	0x3ca57177	0.020195706
46	0x3a51b095	0.000799903
47	0xba8af9fe	-0.0010603068
48	0x3d523907	0.051323917
49	0x3b8e2eee	0.0043390905
50	0x39b9a25f	0.00035406926
51	0x3b98f490	0.004667826
52	0x3cc89bde	0.024488386
53	0x3c4a3990	0.0123428255
54	0xbc792f9f	-0.015209108
55	0x3c27f484	0.010251168
56	0x3ce1bafc	0.027554981
57	0xbc5fbf9f	-0.013656526
58	0xbcab1a58	-0.020886585
59	0x3cd4c163	0.02597112
60	0xbd050da6	-0.03248372
61	0xbb26e700	-0.0025467277
62	0xba7372bd	-0.00092868117
63	0xbce058e7	-0.027386142
64	0xbc108a6b	-0.008822064
65	0xbcf1dd45	-0.029524455
66	0xbb03a405	-0.0020086777
67	0x3ba2db9a	0.004970026
68	0xbab6da44	-0.0013950546
69	0xbccd703a	-0.025077928
70	0x3a8ee15d	0.0010900904
71	0xbc33c7b2	-0.010972904
72	0x3b3220d1	0.0027180205
73	0x3c341edb	0.010993685
74	0x3a1e6a4d	0.0006043062
75	0x3d146e44	0.03623797
76	0x3ca11766	0.019664478
77	0xbb4df0b7	-0.0031423995
78	0xbd26b3a9	-0.04069868
79	0xbba00d4a	-0.0048843967
80	0x3bb40585	0.005493822
81	0x3cd44167	0.025910093
82	0x3bd13fc4	0.0063857753
83	0xbcab1af1	-0.02088687
84	0xbc59f1ef	-0.01330231
85	0xbcba0f34	-0.022712328
86	0x3c344e5b	0.0110050095
87	0xbcc69a3b	-0.024243465
88	0x3bf5eb5d	0.007504864
89	0x3c3577b0	0.011075899
90	0x3c14d058	0.009082876
91	0xbc2f4249	-0.010696956
92	0x3c20f57e	0.009824155
93	0x39d87e94	0.00041293039
94	0x3d341174	0.043961957
95	0xbbc7c898	-0.0060969107
96	0xbc778405	-0.0151071595
97	0xbba1ada1	-0.0049340283
98	0xbacfd5d2	-0.001585657
99	0xbd270081	-0.040771965
100	0x3c270a38	0.010195307
101	0xbc5fdfdd	-0.013664213
102	0x3c2ae6ab	0.010430972
103	0x3c889317	0.0166717
104	0xbbb56f92	-0.005536982
105	0xbb06eafb	-0.0020586837
106	0x3cb335fe	0.021876331
107	0x3bb64ed8	0.005563598
108	0x3ccaa3eb	0.024736365
109	0xbc11ad44	-0.008891407
110	0xbc7c7284	-0.015408162
111	0x39843462	0.0002521603
112	0x3cb99dfd	0.022658342
113	0xbb5a28fd	-0.003328859
114	0xbab0ccb6	-0.0013488743
115	0x3a65681c	0.000875117
116	0xb8187c73	-3.6355526e-05
117	0x3bc09dea	0.0058782
118	0xbb9ca588	-0.004780475
119	0x3a9bd156	0.0011887948
120	0x3c658efa	0.014011139
121	0x3cf11c52	0.02943245
122	0x3cc658d5	0.02421228
123	0x3be58986	0.0070049195
124	0x3c91bf42	0.017791394
125	0xbc0882b9	-0.008331948
126	0x3bd0b915	0.0063697197
127	0xbc25c6c2	-0.010118188
