Assets/Games/Race/AI/Brain/My Behavior6.onnx (onnx, 77139 bytes, 5 tensors)

network_body._body_endoder.seq_layers.0.weight f4 [128, 11]
000000 a9 3a 98 3d fe bd 90 be 6f 91 d4 3e bd 1b 68 be
       0.074330635 -0.28269953 0.41517207 -0.22666831
000010 cb 41 f5 bd 95 1a ed be 8c 5e 3b 3f 51 87 1d bf
       -0.1197544 -0.46309343 0.7319114 -0.615346
000020 f7 c6 c9 bc 5e c5 4f 3c e9 2c eb 3e 75 9e d1 3d
       -0.024631007 0.012681333 0.459327 0.102353014
000030 cd 88 3a bf 55 19 3c 3e 00 a1 b6 be 4c 45 b2 3e
       -0.7286499 0.18369038 -0.35669708 0.34818494
000040 6f bd eb 3e 7a bb 4c be c1 4b ad 3d a2 e4 58 3d
       0.46042964 -0.19993392 0.084617145 0.052952416
000050 5d 41 02 bf 41 68 8c 3e 6b fa 3d 3e 26 9b 87 3d
       -0.50880986 0.2742329 0.18552558 0.06621389
000060 36 f1 a7 bc 0d 69 12 bf b0 3d a2 be 21 a3 9d bd
       -0.02050076 -0.57191545 -0.3168769 -0.0769713
000070 8a c8 3d 3e 8d c5 e4 bd 97 cc fe bc 21 4c 1d bf
       0.18533531 -0.11170492 -0.031103415 -0.6144429
000080 1b 1c 2c be d0 67 02 bf 65 b1 84 3e e1 cb 1c bd
       -0.16807596 -0.50939655 0.2591659 -0.03828037
000090 4f 08 c3 3d fe df 2f 3d 10 20 cf 3e 5a 3a 74 3e
       0.09523069 0.042938225 0.4045415 0.23850384
0000a0 68 ad 08 3f 6c 2d 86 3e ce 90 2c bf 4d 07 04 3d
       0.53389597 0.2620653 -0.67408454 0.032233525
0000b0 0a 7b 7e be 79 94 49 be f2 9b f3 bc 53 00 8b 3e
       -0.24851623 -0.19685544 -0.029737446 0.27148685
0000c0 a8 5d 04 bb 63 3d ca bc 0b b7 6c 3e 56 f1 94 3d
       -0.0020197425 -0.024687475 0.231167 0.07272594
0000d0 46 77 9c 3e 38 11 07 be 8d f4 3e bd 16 a3 b0 be
       0.30559748 -0.13190162 -0.04661994 -0.34499425
0000e0 f9 a4 29 3f e9 46 84 bd 60 bd d0 3e 17 b7 af 3e
       0.66267353 -0.064588375 0.40769482 0.34319374
0000f0 03 e9 92 3d 2b f1 08 be a4 39 9a bd ac d1 58 be
       0.0717335 -0.13373248 -0.07530525 -0.21173733
000100 84 92 0e bf 69 26 47 bd be 48 e2 3e e8 44 2a 3f
       -0.55692315 -0.048620615 0.44196123 0.6651139
000110 7b 28 0c bf 11 75 e1 3d 33 bd ef be 23 c7 4d be
       -0.5474927 0.11008657 -0.46824035 -0.20095496
000120 85 42 dd 3e 1c 20 95 bc 5b f1 30 be a8 5e 4a 3e
       0.43214813 -0.018203788 -0.1727957 0.19762671
000130 f6 6b ca 3e 91 eb 4c 3e 7d 6b b7 be e6 07 4a be
       0.39535493 0.20011736 -0.35824195 -0.19729576
000140 fc 2b 71 be 42 07 38 3e 1b 7e 98 bd 8d ad 35 3e
       -0.23551935 0.17971519 -0.07445928 0.17741986
000150 76 75 0e 3e 64 3d 83 be 14 86 1d be 11 db c3 3d
       0.13911995 -0.25632775 -0.15383178 0.09563268
000160 12 9d f7 3e dd 63 ad 3e 2b a4 6e 3d 5f cd c3 3e
       0.48362023 0.33865252 0.05826203 0.38242623
000170 11 22 2a be 72 ae b4 be 2a 80 d5 be a4 10 2a bf
       -0.16614558 -0.3528934 -0.41699344 -0.6643164
000180 f8 01 eb be eb 03 8c be d7 51 63 be b9 33 7c be
       -0.4589994 -0.2734674 -0.22199188 -0.24629106
000190 f6 4d a3 3e 3f e4 e9 3e 8b 45 9b be c3 1e f7 bd
       0.31895417 0.4568195 -0.30326495 -0.12066414
0001a0 d7 05 7d be d6 fb 17 3f 62 f1 5f bd e4 81 e3 3d
       -0.24709259 0.59368646 -0.05467356 0.11108759
0001b0 f6 35 3a 3b 77 0b 81 3e c5 fd 91 be 98 c4 97 be
       0.002841351 0.2520406 -0.28513923 -0.29642177
0001c0 93 a1 86 be ea af a8 3d 3b 57 0e 3e 00 a2 7b be
       -0.26295146 0.08236678 0.13900463 -0.24573517
0001d0 91 54 1d be 9f 6d 26 bf f2 70 93 be 18 92 ee be
       -0.15364291 -0.6501102 -0.28797108 -0.46595836
0001e0 b6 fd 76 3e 3b dc 3b be 63 1e da 39 fc 5f 61 3e
       0.2412022 -0.1834573 0.0004160284 0.22009271
0001f0 a5 cc 06 3f 84 93 98 3d 05 99 df 3e 61 e0 03 bf
       0.5265601 0.074500114 0.43671432 -0.5151425
000200 3d a8 1b be 60 9c c6 bd 78 24 5e 3f c2 09 6b 3f
       -0.15200897 -0.09697795 0.86774397 0.91811764
000210 83 48 48 3e a3 c3 26 3f 6c ed b1 3e e4 0c c4 be
       0.19558911 0.6514227 0.3475145 -0.38291085
000220 6b 95 cb bd 65 ea 5e be 98 ab 5c 3e da 85 f9 3e
       -0.099406086 -0.21769102 0.21549833 0.48734933
000230 ba 33 cf be 96 24 10 be 29 0f bf 3d d7 d9 09 3f
       -0.40469152 -0.14076456 0.093290634 0.5384802
000240 d6 cc 01 3f 7f 4d c8 3e 7b 5c 9f be 79 5a a1 3d
       0.5070318 0.39121625 -0.31125244 0.078785844
000250 57 4b 08 bf 36 1b 18 be ee 74 a2 3d 5a 03 34 3d
       -0.5323996 -0.1485413 0.07932459 0.04394851
000260 3e f8 9e be 42 6f 98 3b 0b 91 e5 be b9 9f 9c 3e
       -0.3104877 0.004651935 -0.44837222 0.3059061
000270 92 7f 8c 3d c2 c5 5d be 10 d6 95 3d b8 58 eb bd
       0.068602696 -0.2165747 0.0731622 -0.11491531
000280 56 a9 57 be 79 ca 32 3e 2d f7 6e be 96 ef 93 3e
       -0.2106069 0.1746005 -0.23336478 0.28893727
000290 22 e2 b8 bc 85 a4 db bc da 05 99 be c7 dc 9c 3e
       -0.022568766 -0.026811847 -0.29887277 0.3063719
0002a0 5c 8b 76 be 2a 1f 0d be 24 71 83 be 79 eb eb 3c
       -0.24076599 -0.1378142 -0.25672257 0.028798806
0002b0 01 22 6f be 85 ec 25 be 89 92 6f 3e d2 3c 67 3d
       -0.23352815 -0.16203506 0.23395742 0.056454487
0002c0 f7 31 12 be 40 8a a5 be c3 bf a8 be 7c c6 f3 3d
       -0.14276873 -0.3233204 -0.32958803 0.11903092
0002d0 55 86 b3 bd db b3 9d 3d ff c9 14 bd ef 02 48 be
       -0.08765856 0.0770032 -0.03632545 -0.19532369
0002e0 05 83 04 bf 22 31 bb 3d ec d9 8f 3e 38 74 c4 be
       -0.5176242 0.09140231 0.2809595 -0.38369918
0002f0 1e 35 cf be 97 e0 98 3e 4a b3 89 3e b1 5e 8c bc
       -0.40470213 0.29858848 0.268946 -0.017134996
000300 bc d6 b5 3e 6e 19 a0 3e 6e 33 ef 3b 22 0f db be
       0.35515392 0.312694 0.007299832 -0.42784983
000310 21 a8 51 3e b1 77 a6 3d 33 9c e9 3c 51 83 ae 3e
       0.20474292 0.08128298 0.028516864 0.3408456
000320 8b 6b 16 be 66 68 3b 3e 3a 1c f3 3d 84 9b a2 3e
       -0.14689462 0.18301544 0.11870618 0.31759274
000330 bc d8 3a bd 29 16 b7 bd 47 84 f9 bd 1e 8e c4 be
       -0.04561685 -0.089397736 -0.12183433 -0.38389677
000340 e8 a9 f5 3d 8e da cd 3e 68 8b 3e 3e 8c 15 00 be
       0.11995298 0.40205806 0.18607867 -0.1250822
000350 1a b0 30 be 31 84 04 be 51 23 96 3e cf 3d 0a 3f
       -0.17254677 -0.12941052 0.2932382 0.5400056
000360 b0 c3 c4 3e e4 80 87 3e 16 88 37 3e 05 df 9d 3e
       0.38430548 0.26465523 0.17923006 0.30834213
000370 9f aa 90 be 08 42 92 be a7 8c f3 bc 00 39 1c be
       -0.28255174 -0.28566003 -0.029730154 -0.15256119
000380 8c 61 19 be 77 ee c6 bd ee 0c 0b be 0e 42 01 3f
       -0.14978617 -0.09713452 -0.13579151 0.50491416
000390 59 bc 5e 3d fa 62 9d be 8b 8e a2 3d 41 fe 2b bf
       0.05437884 -0.30739576 0.07937344 -0.67184836
0003a0 e2 d8 b3 be 86 87 cb 3e d4 4a 22 be d6 30 a4 be
       -0.35126406 0.39751834 -0.15848857 -0.3206851
0003b0 d6 03 bf be 4c c5 68 be c6 34 0e 3e b3 b6 11 3e
       -0.37307614 -0.22731513 0.13887319 0.1422985
0003c0 77 7c 58 3d 25 79 df bd 72 23 ae bd 7b e1 9c 3e
       0.052853074 -0.10911778 -0.085028544 0.30640778
0003d0 87 58 1a 3e 2b f7 8a 3e ea b5 27 3e 84 11 55 3e
       0.15072833 0.271417 0.16377988 0.20807463
0003e0 f5 9c 3d bc 87 98 c3 3e eb b1 d7 3d 36 d4 af be
       -0.011573066 0.38202307 0.10531982 -0.34341592
0003f0 ab 7c 39 3e a2 5b 9c 3e 54 a9 94 3e f6 5a 02 bd
       0.18113963 0.3053866 0.29035437 -0.03182503

network_body._body_endoder.seq_layers.0.bias f4 [128]
000000 16 59 d9 ba 75 83 d9 39 8a 8f cc 3b 21 b5 8b b9
       -0.0016582336 0.00041487408 0.006242697 -0.00026647098
000010 c2 9f 73 ba c6 76 8d bb 30 16 8a 3a c3 c3 75 bb
       -0.000929352 -0.0043171374 0.0010535177 -0.0037500716
000020 0c 04 3b 3b 26 fd 8b ba 49 c3 57 3b 18 b6 83 b8
       0.0028536348 -0.0010680303 0.0032922796 -6.2804844e-05
000030 71 26 a6 39 c7 2f b7 b9 5a 4a 6d bb 5c 79 b2 3a
       0.00031690628 -0.00034940077 -0.0036207647 0.001361649
000040 77 09 1a bb 60 c6 89 b9 47 7f c8 3b 39 5c 1d bb
       -0.0023504177 -0.00026278477 0.0061186883 -0.0024011268
000050 8f 82 17 3b dc e0 14 b8 ec ff ce b9 96 af c9 bb
       0.002311859 -3.5495366e-05 -0.00039482058 -0.0061549647
000060 f4 ca 14 ba f7 9b 05 bb 43 70 12 b9 a6 22 ec b8
       -0.00056759943 -0.0020387152 -0.00013965466 -0.00011259811
000070 db 53 84 39 c3 43 d9 3a eb cf 24 bb 2f 85 d1 ba
       0.0002523948 0.0016575981 -0.0025148343 -0.0015985126
000080 f4 8a 69 3a 46 5c 06 bb 8b c7 29 3b d2 6c d5 3b
       0.000890895 -0.0020501777 0.002590629 0.0065132165
000090 be 79 ab ba aa 4d 40 bb c5 28 3d ba 65 9b 8f 3a
       -0.0013082547 -0.0029343166 -0.0007215853 0.0010956345
0000a0 31 7b 9e ba 8f ce 8b 3b e4 43 3e bb cb aa 06 bb
       -0.0012091157 0.004266567 -0.0029032165 -0.0020548578
0000b0 15 be b1 ba dd 7e 90 bb 84 f8 8c ba 4b 4b 4d 3a
       -0.0013560677 -0.0044096545 -0.0010755216 0.0007831349
0000c0 e0 46 c9 39 65 ae 67 3a c8 5e a6 39 a5 a7 b4 b9
       0.00038390514 0.00088379375 0.00031732605 -0.0003445718
0000d0 9f 80 3f 3a 70 bf cd ba ca bc c9 b9 97 2a 63 bb
       0.0007305238 -0.0015697312 -0.00038478366 -0.0034662837
0000e0 cf 1a 06 3a f1 b1 01 b8 2b 21 77 bb f7 20 9f bb
       0.0005115689 -3.0921718e-05 -0.0037708979 -0.0048562246
0000f0 82 56 b2 ba 4c c9 39 bb b0 ef c3 ba 8b 47 ae 3b
       -0.0013606104 -0.0028348742 -0.0014948752 0.005318587
000100 01 e1 c7 3a 00 b0 ee ba 77 91 2f 3b 28 b7 d5 3a
       0.0015249552 -0.0018210411 0.0026789585 0.0016305195
000110 20 86 5b ba 8b 00 3f bb f4 9e 82 3a ec be 91 ba
       -0.0008374173 -0.002914461 0.0009965585 -0.0011119521
000120 39 53 25 ba ca 64 77 ba 18 65 80 3a 66 c2 08 bc
       -0.00063066516 -0.0009437321 0.0009795753 -0.008347129
000130 70 b4 c7 3a 55 6a 67 3b 17 d3 20 3c 12 cd 1f 3b
       0.001523627 0.0035311182 0.009815953 0.0024383706
000140 b0 1b 38 3b d9 03 31 ba 89 08 0c ba e2 e1 51 3a
       0.0028092675 -0.00067525875 -0.0005341848 0.00080063764
000150 15 cc b4 b9 7a 91 d9 3a 6e af 52 3b 33 6f 87 3b
       -0.00034484328 0.0016599142 0.0032148021 0.004133129
000160 ef 7f da ba d5 a3 d2 ba 6d 18 a7 ba da 7c 35 3b
       -0.0016670207 -0.0016070554 -0.0012748368 0.0027692826
000170 a4 d9 ed b8 0b ce dc 3a 97 0a b4 ba 80 62 6b ba
       -0.000113415794 0.0016846074 -0.0013736066 -0.0008979216
000180 b3 a2 37 3b fa 66 9f b8 44 20 84 3a ee 46 9f 3a
       0.002802056 -7.600892e-05 0.0010080417 0.0012151876
000190 6a 3b 9d b9 59 e1 a7 ba 87 a5 1e 3a c7 a2 8a 3a
       -0.0002998964 -0.0012808248 0.0006051887 0.0010577076
0001a0 ba 68 91 ba 57 22 a6 bb d8 48 62 ba 55 f4 82 bb
       -0.0011093833 -0.0050700116 -0.00086320704 -0.003996412
0001b0 1d 64 80 bb 65 68 b8 3a fa b7 2b 3a fd 76 da 3a
       -0.0039181844 0.0014069198 0.0006550547 0.0016667541
0001c0 18 8a 1a bb a2 f4 17 bb 8f 78 43 ba bc 33 2f 3a
       -0.0023580845 -0.0023186584 -0.00074566243 0.0006683429
0001d0 c9 ef 9e 39 51 a4 97 bb e9 33 e3 b8 94 e8 e1 ba
       0.00030314762 -0.0046277423 -0.000108338725 -0.0017235451
0001e0 36 0b 26 ba ec 53 8b 3a d7 b5 37 3c 0f d0 96 3b
       -0.0006334068 0.0010629869 0.011212788 0.0046024392
0001f0 e2 3e ca 3b a8 e8 d6 38 eb 59 6a b9 4f 5e 9a b9
       0.006172047 0.00010247651 -0.00022349476 -0.00029443434

network_body._body_endoder.seq_layers.2.weight f4 [128, 128]
000000 7d 8e a9 3c 8d e8 f2 bd ea ed 28 3d 86 28 50 bc
       0.020697827 -0.11860762 0.041242518 -0.012704974
000010 55 bb 17 3e 37 19 cb 3d 2f fb 9b 3d 72 41 b7 3d
       0.14817555 0.09916919 0.07616269 0.089480296
000020 6e 69 03 bd db c0 40 bb 12 f1 3a ba bc 1e e9 3c
       -0.032082967 -0.0029411826 -0.0007131259 0.028457038
000030 af f8 26 3e 35 8c 5e 3e b6 49 f1 bc 22 dd f3 3c
       0.16305803 0.21733172 -0.029454093 0.02976853
000040 3d 1b d3 3d fc 9e c8 3d 9f f4 6b 3a d1 c5 9d 3e
       0.1030793 0.09795949 0.000900099 0.30814984
000050 d3 ba b7 3d b2 8c 92 3c f4 43 85 3d 7c 8b 30 3e
       0.08971181 0.017889354 0.06507102 0.17240709
000060 06 4d 2e bd d6 b4 01 bd 3c 9d bc 3d 22 8f d2 b8
       -0.042553924 -0.0316666 0.092096776 -0.00010040241
000070 f5 a4 f9 3c 36 11 14 be 96 7b fd 3c 84 8c 8b bd
       0.030474165 -0.1445969 0.03094272 -0.068139106
000080 39 d0 95 bd 2e 6b 83 3d c2 45 bf 3d 06 56 a9 bd
       -0.07315106 0.06416927 0.09339477 -0.08268361
000090 82 00 94 3c c7 db 9e 3d 8a 60 e3 bd 7e e8 54 3e
       0.018066648 0.07756763 -0.11102398 0.20791814
0000a0 77 49 c7 3d f8 84 4f be fe ae 12 3e f4 55 8d 3d
       0.09730809 -0.20265567 0.14324567 0.0690116
0000b0 1d f3 89 3d 94 13 77 3d 54 57 bd 3b a6 14 1e 3d
       0.06735823 0.060321406 0.0057782326 0.03859391
0000c0 8d 90 19 3d 95 36 ee 3d 99 4e 78 be 5e 65 19 be
       0.03749137 0.116315044 -0.24248733 -0.14980075
0000d0 2b 5d 24 bc 3e d7 b8 bd 69 b5 9e bd a0 ac 73 bd
       -0.010031979 -0.09025429 -0.07749445 -0.0594908
0000e0 6e 22 6a bc f5 e7 e8 3d 9c 62 3a bd 9d 70 33 bd
       -0.014290435 0.11372367 -0.045504197 -0.04380857
0000f0 b8 be 27 3d ba 59 1b 3d 48 27 98 bc eb f6 db bc
       0.040953368 0.037927367 -0.018573418 -0.026851138
000100 b7 95 c1 3c f1 e9 56 bd ec a1 88 3d 89 8b 7b 3d
       0.02363096 -0.052469198 0.06671509 0.061412368
000110 de 09 ff bb 3a ae 47 3d f4 35 37 3c 32 5c 74 3d
       -0.0077831587 0.04875014 0.011182297 0.059658237
000120 da 2c 53 3d cc 82 e0 3c 49 dd 87 3c cb 69 67 3c
       0.051556446 0.027406119 0.01658501 0.014124344
000130 18 45 7c 3c fb a8 1c 3e e9 81 00 3e 8e f0 53 3d
       0.015397333 0.15298836 0.12549557 0.051743083
000140 d6 4f a3 bd 23 8a ce 3d e3 15 e9 3d a0 5c ee bd
       -0.07974212 0.10084941 0.11381128 -0.116387606
000150 3c 12 31 bd a7 8f 5d bc 7c 96 c4 3d 55 a8 b0 3c
       -0.04323028 -0.013523019 0.09599015 0.021564642
000160 04 87 a9 b9 6a c2 2f bd d9 ad d3 bd 38 7d 4e bd
       -0.00032334786 -0.042910017 -0.10335893 -0.050412387
000170 d6 07 e8 3b c7 bb 94 3d bf 46 e3 3d 12 e8 ca bd
       0.0070810122 0.07262378 0.11097478 -0.09907545
000180 bf a2 8f 3d 04 2a 41 3d 3e c9 9e 3d d6 f8 08 3d
       0.07013463 0.04715921 0.07753228 0.033440433
000190 65 8e d0 bd c3 f7 0f 3d 3c 2c a7 3c 58 d4 44 bc
       -0.101834096 0.035148393 0.020406835 -0.012013517
0001a0 c0 b3 6e 3d 0e e2 3a bd 60 1f a7 3d f3 59 f8 bc
       0.05827689 -0.04562574 0.08160281 -0.030316329
0001b0 9d 34 36 bb be 9b 9b bc c2 3c 0f 3c d1 c4 81 3d
       -0.0027802356 -0.018995162 0.008742513 0.06336368
0001c0 a8 36 02 be 6f 33 9d 3d 92 45 f1 bd da 68 0b bc
       -0.12716162 0.07675826 -0.117808476 -0.008508885
0001d0 e3 51 93 39 6f 91 d3 3d 2e 81 61 bd 09 9c 0d 3e
       0.00028099035 0.10330474 -0.055054836 0.13829054
0001e0 b2 f4 04 bd 7c 1c 74 3e d2 ab f5 bd c5 67 a6 3c
       -0.032459922 0.23838991 -0.11995663 0.020313153
0001f0 01 ff ea bd 09 bb e6 bd 68 cc 51 3d 7f 19 08 be
       -0.114744194 -0.11266143 0.051220328 -0.13290976
000200 b4 a7 06 3e 93 0d 8d bc 0b b4 be bd 8a d7 af 3b
       0.13149911 -0.017218387 -0.09311684 0.0053662704
000210 7a d6 a8 3d 5b 76 2a 3d 4f ce 88 bc 38 2b c8 bd
       0.08244033 0.04161678 -0.016699938 -0.09773868
000220 62 6c dc bd 64 7a 74 bc a7 09 7e bd 17 be c3 bd
       -0.1076286 -0.014921758 -0.062020924 -0.09557741
000230 e0 f5 90 bd 91 45 49 bd 91 c6 24 3d 67 7c ae 3d
       -0.07078147 -0.04913861 0.04022843 0.085198216
000240 dd b7 d1 3c 97 4d 8d bd 72 e0 cc bc ec a8 42 3e
       0.025600368 -0.06899565 -0.025009368 0.19009751
000250 63 a4 ad bd 49 ba a8 bd e0 ef 0a 3e d5 0c c8 bc
       -0.0847862 -0.08238656 0.13568068 -0.024420181
000260 f6 9b 6c 3d a4 8c 14 be dd 0d 07 be 2f cf 47 bd
       0.057765923 -0.14506775 -0.13188882 -0.04878157
000270 52 cd cf bd ef 1e bf bc 44 40 12 be 89 5e 45 bd
       -0.101465836 -0.02333018 -0.14282328 -0.04818586
000280 37 8c 91 3b cb eb 68 3c e5 26 f9 3d 95 5e 83 3e
       0.0044417637 0.014216374 0.12165622 0.25658098
000290 c2 a1 e9 3c fb 24 8b bc 82 31 a6 bd 9d 17 82 be
       0.028519515 -0.016985407 -0.081149116 -0.2540864
0002a0 c3 1e b0 bc 0b 79 79 3e 3a ff 10 3e 2c 69 f1 bc
       -0.021499043 0.2436258 0.14159861 -0.029469095
0002b0 f0 4a 69 be 15 ba ac 3d 80 46 b4 3c e4 5d 8f bc
       -0.22782493 0.0843393 0.022006273 -0.017500825
0002c0 f1 ea b3 bd b7 82 b4 3c 31 62 90 bd 81 2c e9 bc
       -0.08785046 0.022034986 -0.070499785 -0.028463604
0002d0 29 85 5c bd d2 ba 29 bd 87 0e d6 bd 7f f9 31 bd
       -0.05383793 -0.04143793 -0.104519896 -0.04345083
0002e0 40 d3 c8 bc 6e ee 43 be fa e2 98 bd d4 4d fe 3c
       -0.024514794 -0.19133922 -0.07465167 0.03104297
0002f0 9e 8b 3c bd ef 60 e6 3c 88 d8 05 3e d9 b4 4d 3e
       -0.046031587 0.028122393 0.13070881 0.20088519
000300 4d 62 03 3d 03 a9 8d 3c 5c d8 11 be 62 18 16 bd
       0.03207617 0.017292505 -0.14242691 -0.036644347
000310 69 fb 25 3d 41 ae 44 bd 72 c8 02 bd 69 31 0c 3d
       0.040522967 -0.048017744 -0.03192944 0.03422681
000320 4e 0a c1 3d a4 8d 48 3d 53 9b 9d bb 60 ac 03 bd
       0.094257936 0.048963204 -0.004809776 -0.03214681
000330 1d 1b a5 bc d7 70 9a bd 00 cc cf bd e3 e1 04 3d
       -0.02015453 -0.07541054 -0.10146332 0.032441985
000340 e9 8e 5e 3d 6b dc a5 3d db 51 94 bd 20 96 fb bc
       0.05433551 0.08098682 -0.07242175 -0.030711234
000350 4b c3 73 bd 27 3a 6f bd 6a 8d d5 3d 36 08 ce 3d
       -0.059512418 -0.058405068 0.10427363 0.1006016
000360 7d cb e9 3b eb 2f 2d bd 8e 5d 2d 3e f7 10 ed bc
       0.0071348534 -0.042282026 0.1693022 -0.028938754
000370 dd a4 a5 bd 98 75 20 3e 12 3f 0e be 14 75 e3 bd
       -0.08088086 0.15669858 -0.13891247 -0.11106315
000380 af d9 de 3d b3 d9 84 bd ed 97 c4 3c aa 15 45 bd
       0.108813636 -0.06486835 0.023998225 -0.048116364
000390 f2 76 b2 bc 24 04 9d bd d8 0a c5 bb d0 b1 8e bd
       -0.021785233 -0.076668054 -0.0060132556 -0.06967509
0003a0 d8 c4 4e 3e 56 e5 04 be b2 96 c2 3a 8a be 09 3e
       0.20192277 -0.1297811 0.0014845936 0.13451591
0003b0 2e 67 22 3d 53 f4 0d be 6b 30 bf 3c b1 ab b3 3d
       0.03964918 -0.13862734 0.023338517 0.08772982
0003c0 a7 7b 38 3d 58 08 7b bd fa 3d 6f 3b cc d6 8f 3d
       0.0450398 -0.061287254 0.0036505447 0.07023391
0003d0 b1 a9 12 3d ac a7 4b 3e 24 49 81 bd 3b ae 70 bd
       0.03580636 0.1988818 -0.063127786 -0.05875991
0003e0 8f 6c 79 3d 4a 90 13 3e 73 d8 06 3e 71 ac c6 bb
       0.060894545 0.1441051 0.13168506 -0.006063037
0003f0 b9 03 e1 ba 41 cf 14 3e c1 48 3b 3e 1a 71 8e bb
       -0.0017167247 0.14532186 0.18289472 -0.004346979

network_body._body_endoder.seq_layers.2.bias f4 [128]
000000 b2 4f 64 ba 13 af 31 b9 27 22 13 3a ab 02 5d 3a
       -0.00087093853 -0.00016945256 0.0005612694 0.00084308785
000010 b3 b3 8d b8 a3 64 04 3c a0 a7 95 ba ba 21 d1 39
       -6.7568755e-05 0.008080634 -0.0011417754 0.00039888715
000020 a0 10 e0 bb 71 3d d2 ba e3 c1 23 3a 81 3d fc 3a
       -0.0068379194 -0.001604004 0.0006246848 0.0019244404
000030 e1 bd 65 ba 23 1f 77 39 9c 5d 80 3b a2 fb 9c 3b
       -0.0008763951 0.00023567355 0.003917409 0.004790739
000040 fd 6f 10 3a 59 48 e0 39 38 7d c2 ba 78 2f e8 ba
       0.00055098516 0.00042778513 -0.0014838343 -0.0017714342
000050 74 69 31 bb 62 52 b4 bb 83 25 e2 b9 64 9f a3 3b
       -0.0027070912 -0.005502985 -0.00043134028 0.004993366
000060 74 fd 87 ba a6 d5 06 3b a2 cb 1e 38 1b 10 7e 3a
       -0.0010375218 0.0020574122 3.7859783e-05 0.0009691731
000070 6c 72 a4 ba ee 5d 8c bb 59 e9 22 bb dc 7f 6f 3c
       -0.0012546307 -0.004283658 -0.0024858324 0.014617886
000080 9f e5 6c ba d1 c6 1a 3b 85 22 c0 ba 23 02 aa 3c
       -0.0009036902 0.002361704 -0.0014658725 0.020752972
000090 f2 87 d6 ba 36 8b d7 b8 1d 31 be bb 19 51 b0 38
       -0.0016367419 -0.00010277929 -0.0058041946 8.4074396e-05
0000a0 0a ce 5b 3b 2b 9b 9a ba 1a f9 e9 bb 22 83 f8 b9
       0.0033539557 -0.0011795511 -0.007140291 -0.00047399948
0000b0 f3 8a 48 ba 1c b8 84 ba b7 4b 80 3a 03 b5 fd 39
       -0.00076500996 -0.001012567 0.000978819 0.00048390785
0000c0 ad 85 1d ba bb 44 ba 3a 9b c6 4c ba af 4a 5b 3b
       -0.0006008994 0.0014211157 -0.0007811577 0.0033461263
0000d0 10 ae 37 3b 94 ad 4b 3a 77 b6 ca bb be 1e 47 bb
       0.0028027333 0.00077697006 -0.0061863023 -0.0030383314
0000e0 96 4f 44 3a 22 56 74 bb 6f 85 2e 3b 10 c8 ea bb
       0.0007488666 -0.0037282784 0.0026629826 -0.0071649626
0000f0 33 ba fb 3a 75 9f 12 3a ef b4 a1 ba 17 7d 53 39
       0.0019205272 0.0005593219 -0.0012337248 0.00020169128
000100 00 00 a8 3a be ea 39 3a 38 af 66 3c 85 a8 09 bb
       0.0012817383 0.0007092169 0.014079861 -0.0021004986
000110 c2 7d ff 3a f4 43 e8 ba 11 55 ac ba 4d bf 1e ba
       0.0019492435 -0.0017720447 -0.001314791 -0.0006055728
000120 f0 e6 90 ba 93 c6 3c bb fb e2 8a 38 f7 bf 4f bb
       -0.0011055153 -0.0028804883 6.622631e-05 -0.0031700113
000130 b2 2d f9 b9 57 40 a4 ba 7a e7 1d bb 9f 96 80 3c
       -0.00047527027 -0.0012531382 -0.002409427 0.015696822
000140 ba ce ca ba ea 46 61 b8 07 76 d4 b8 2a 8b 3e 3a
       -0.0015472986 -5.3710224e-05 -0.00010130932 0.0007268662
000150 bb a9 63 bb ad c6 c0 ba 6a e7 3f b9 8b 96 27 39
       -0.0034738618 -0.0014707647 -0.00018301388 0.00015982443
000160 12 63 15 ba a8 c3 24 3b ba 93 c8 ba 87 74 b3 bb
       -0.00056986616 0.0025141034 -0.0015302815 -0.0054765376
000170 46 0a b7 bb 9c 1d 1c bb 25 3d c9 ba 0d ec 68 ba
       -0.0055859415 -0.002382136 -0.0015353305 -0.0008885272
000180 66 80 4a 3a 68 e0 0e bb 23 3a 8c bb 16 42 18 bc
       0.00077248213 -0.0021801237 -0.0042793914 -0.0092931
000190 63 66 7a 3a 16 e2 b3 bb 97 46 a8 3b 76 eb ef ba
       0.0009552 -0.005489598 0.005135368 -0.0018304426
0001a0 fe 7b 1a 3a 0f 16 85 ba 0f 9f b1 39 dd cd cb 38
       0.000589311 -0.0010153669 0.0003387858 9.718139e-05
0001b0 b5 b6 8e b9 4f 1d e3 39 86 57 6c 3b 5f 2c 2f 39
       -0.00027220478 0.0004331865 0.003606291 0.0001670583
0001c0 ff d2 b4 bb 85 b3 09 3b 66 4f 0d 39 5b fa 55 3a
       -0.0055183168 0.0021011543 0.00013476386 0.0008162611
0001d0 27 f7 fa ba 82 33 16 ba 26 5f 92 ba f3 d5 6a 3b
       -0.0019147143 -0.0005729721 -0.0011167272 0.003583309
0001e0 7d 7e bf 3a dd 52 8a 39 3d 31 4a 39 66 77 a3 b8
       0.001460984 0.0002638315 0.00019282564 -7.7946854e-05
0001f0 46 d6 a5 ba 62 69 f8 3a 59 e7 99 ba 40 1a 32 3a
       -0.001265236 0.0018952305 -0.0011741921 0.00067940727

action_model._continuous_distribution.mu.weight f4 [1, 128]
000000 89 3e 98 3c 3c 46 ba 3b 32 11 01 3c 63 32 93 bc
       0.018584507 0.005684642 0.007877635 -0.017968362
000010 2c b9 2f bb ce 55 f4 3b 99 24 14 3c 1f 69 80 bc
       -0.0026813252 0.007456518 0.009041929 -0.015675126
000020 17 7f ba bb 46 68 ae 3b bc 0b 92 bc 29 62 0c bd
       -0.00569142 0.005322489 -0.017827861 -0.0342733
000030 cf 69 3a 3c 51 82 0f bc b2 df 78 3c c5 62 06 3d
       0.011377766 -0.008759097 0.015190052 0.032809038
000040 0f be cf bc 3e 15 25 3c c5 7f cc 3b 34 b4 11 bc
       -0.025359182 0.010075865 0.0062408173 -0.008893061
000050 a8 7a 98 bb 11 5f 90 3a d4 a4 22 bc 58 29 06 3d
       -0.0046532936 0.001101466 -0.009926993 0.032754272
000060 36 4c e0 3c a4 ec 12 bd 95 23 3a bd e1 96 5e 3c
       0.02738009 -0.03587021 -0.04544409 0.013585777
000070 75 5e b0 3b b5 3c ea bb 9c a4 dd 3b c1 9e 22 3d
       0.005382354 -0.00714835 0.0067640077 0.03970218
000080 ec e3 b1 3c 3b 0b 05 3c f3 34 8f 3b 35 f5 b4 3c
       0.021715127 0.008120353 0.0043703257 0.02208958
000090 e3 33 d9 3b 01 f5 90 3b 3c fb 9e bc ff f3 97 bb
       0.0066285 0.004423738 -0.019406907 -0.004637241
0000a0 10 a4 b6 3c 8f 5a 5b 3c 6f 31 8b b9 7d 79 75 3c
       0.022295028 0.01338829 -0.00026548977 0.014982578
0000b0 30 18 09 3b 72 74 4e 3c 51 0b ec bc dd 9f 0b 3b
       0.0020918958 0.012601005 -0.02881399 0.0021305003
0000c0 e9 85 0f 3c f9 b5 8e bc 87 67 1d b8 bb de be 3c
       0.008759954 -0.017420756 -3.7528134e-05 0.023299566
0000d0 0f 53 72 3c 6a 31 89 bc a2 a8 04 3b 92 c4 10 3c
       0.0147903105 -0.016747195 0.0020242115 0.0088359285
0000e0 fe 37 0a bc 68 b3 46 bc 2a 7d 21 3b 16 bc 06 bb
       -0.008436201 -0.012127735 0.0024641254 -0.0020558885
0000f0 e3 67 01 3c 04 18 5c bc 79 7b 82 3b 3a be b2 bb
       0.007898304 -0.01343346 0.0039820042 -0.0054548057
000100 75 49 f0 bb ff 57 e7 bc 0e 0e 9d 3c e5 f7 03 3b
       -0.0073329755 -0.028240202 0.01917174 0.002013677
000110 7d 85 9b bc ac 21 01 bd 61 0f 49 3c ed 19 8b 3b
       -0.01898455 -0.031526253 0.012271733 0.004245034
000120 85 16 5d 3b 2f e9 b4 bc 88 2e e9 bb a0 37 f7 3b
       0.0033735347 -0.022083847 -0.0071161427 0.007544473
000130 ee 57 99 3c 45 69 69 3d 42 30 d3 bc 4a 61 ba 3c
       0.018718686 0.05698516 -0.025779847 0.02275147
000140 a9 08 a5 bc 34 6f 94 3c e7 0d 16 bc 83 c2 74 bc
       -0.020145731 0.018119432 -0.009158588 -0.014938953
000150 eb ac 40 b9 c9 a2 98 3b 44 c0 d0 3b 17 69 1a bc
       -0.00018374964 0.0046580774 0.006370576 -0.009424469
000160 5f be 82 3c 83 58 8b 3b 07 4a 7e 3b 02 f0 23 bc
       0.015959917 0.004252495 0.0038801448 -0.010005953
000170 c3 db 9a 3c 62 91 aa 3b 00 d0 20 3d b8 94 15 3c
       0.018903619 0.0052053193 0.039260864 0.009129696
000180 4d 45 bc bc c5 40 18 3b 03 99 5a 39 22 ea 28 b7
       -0.022982264 0.0023231965 0.00020847101 -1.0068094e-05
000190 5e d5 fb bc 8c 38 c1 b9 33 90 48 bc f5 1a 0f 3c
       -0.03074139 -0.0003685396 -0.012241411 0.008734454
0001a0 ca fb 9e bc 77 0c 3a 3d ee 3a 11 3d b3 d5 99 bb
       -0.019407172 0.045422044 0.03545659 -0.0046946644
0001b0 c0 77 56 3c 83 63 0f bc a4 35 01 3d bc 8e a4 bb
       0.013090074 -0.008751753 0.031545296 -0.005021898
0001c0 13 21 f7 bb 22 a4 4a 3b 0d 76 a3 bc 3d cf 9f bc
       -0.0075417846 0.0030920585 -0.019953752 -0.019507999
0001d0 31 42 d3 bc 84 4f 2d bb a6 58 61 3c e7 9a 7c 3c
       -0.025788398 -0.00264451 0.013754046 0.015417791
0001e0 8b 6a 25 3c 10 bf 29 bc 24 f3 62 3c c4 ec 02 3d
       0.010096203 -0.010360494 0.013851915 0.03196408
0001f0 d5 20 16 3c 10 d2 c9 bc 09 58 43 3d b0 bf 4b 3c
       0.009163101 -0.024636298 0.04769138 0.012435839
