Assets/Games/Race/AI/Brain/My Behavior5.onnx (onnx, 77139 bytes, 5 tensors)

network_body._body_endoder.seq_layers.0.weight f4 [128, 11]
000000 3e a1 96 be 28 c7 87 bd e8 4e 99 be 6d ae 1e bf
       -0.29419893 -0.06629783 -0.29943013 -0.619849
000010 7d 31 95 be 49 b1 94 be 64 8a c3 be 74 cd 5c 3d
       -0.2913932 -0.29041508 -0.3819152 0.053906873
000020 21 88 d1 bd d6 e5 70 3e 3c 01 e0 bc 6f 6c b4 3e
       -0.10231043 0.23525175 -0.027344339 0.35238978
000030 1c 05 93 3d 33 52 83 be 55 88 a2 3e f3 a9 89 bd
       0.07178709 -0.2564865 0.31744638 -0.06721868
000040 ca 5a cc 3d ed ba 74 3e 1e f2 09 be b1 9d 05 be
       0.09978254 0.23899432 -0.13471267 -0.13048436
000050 9c fd cb 3d 36 80 bb be 06 7e e4 bd dc bb 5a 3e
       0.099604815 -0.36621255 -0.111568496 0.21360725
000060 67 44 76 be 49 f8 56 3e 7f 76 41 bc da 55 42 3d
       -0.24049531 0.20993151 -0.011808037 0.047445156
000070 47 e7 18 3f d0 fd 2f be bb 71 db 3d 66 3c 81 3e
       0.597279 -0.17186666 0.10715052 0.25241393
000080 65 85 16 3e 88 44 81 3e d8 a6 91 be 7e 03 4f be
       0.14699323 0.25247598 -0.28447604 -0.20216176
000090 c2 b8 a1 be 0a 1a e7 be a8 a5 dd bb 9b 85 00 3d
       -0.31586272 -0.45137054 -0.0067641325 0.031377416
0000a0 b2 65 4a 3d b4 6c 20 3f d5 9a b0 3e e0 8a 26 be
       0.04941339 0.6266587 0.34493127 -0.16263914
0000b0 cd 2d 83 be 0f 37 51 3d 63 90 5e bd 7f ff 1a be
       -0.2562088 0.0510779 -0.054336917 -0.15136527
0000c0 0a e1 05 3e 98 9a 4e 3f f7 84 76 3e 97 51 c0 3e
       0.13074127 0.8070464 0.2407416 0.37562248
0000d0 ce 3a ba bd 5d 1d f1 be 7a 27 9b bd 45 f3 87 3d
       -0.09093247 -0.47092715 -0.07575889 0.06638197
0000e0 7f 04 66 3d 2e 12 be be 15 00 f6 bc fe 28 83 be
       0.05615663 -0.37123245 -0.030029336 -0.25617212
0000f0 88 92 c5 be 1d b6 1a 3e c8 df a6 3e 7f 57 0b be
       -0.38588357 0.15108533 0.32592607 -0.13607596
000100 08 ae 9f 3e 4d 05 83 be a5 33 98 3a 70 37 cc 3e
       0.31187463 -0.25589982 0.0011612071 0.39886045
000110 29 7a b4 3e 16 02 17 bf d0 69 3c bf d4 49 c3 bd
       0.3524945 -0.5898756 -0.7359896 -0.09535566
000120 eb f7 80 3e d0 80 f9 3e ff c1 86 be d3 36 3c 3c
       0.25189146 0.4873109 -0.26319882 0.0114876805
000130 1d b5 98 3d 84 12 1b bd 2c bd 50 3e 6b b4 70 be
       0.074564196 -0.037859455 0.20384663 -0.23506324
000140 c4 57 83 be aa 0b b0 be 7e 1d f6 be c7 cb 8d 3e
       -0.25652897 -0.343839 -0.48069376 0.27694532
000150 ec 1b d5 3e c5 38 be 3e c4 f3 d0 be fc 0b 4a 3e
       0.41622865 0.37152687 -0.40810978 0.19731134
000160 64 89 df 3d bb 01 a5 3e 17 24 7d 3e 1a 60 be 3e
       0.10914877 0.32227883 0.24720798 0.37182695
000170 e5 12 39 be ca 91 ab 3d 80 bb 1a bf bd 89 95 bc
       -0.18073614 0.083774164 -0.6044235 -0.018254155
000180 b2 dd 4f be d8 48 9c be 09 e8 13 3f a5 36 16 bf
       -0.20299414 -0.30524325 0.5777593 -0.5867713
000190 93 bc 08 be 74 ff 9a 3e b1 04 3e bc 4a 49 88 bd
       -0.13353185 0.3027302 -0.011597798 -0.06654604
0001a0 5e 7c 39 be ff 34 09 3f b5 07 2c bd 11 75 19 bf
       -0.18113849 0.5359649 -0.041999537 -0.59944254
0001b0 b4 f1 12 3e 9a c0 69 3d 5e 96 1d bd a5 fa 54 be
       0.14350015 0.057068445 -0.03847348 -0.20798738
0001c0 cd df 6e 3f dd ed bb 3d 5b 65 12 3d 27 15 b1 3e
       0.9331024 0.09176228 0.03574119 0.3458645
0001d0 08 22 21 be ac 60 02 3f 90 b1 80 3e cf 0a 8f 3d
       -0.15735638 0.5092876 0.2513547 0.069844835
0001e0 50 98 19 3e 6a f4 96 bd db 29 2e 3e 32 72 3f 3f
       0.14999509 -0.07370837 0.17008154 0.74783623
0001f0 91 40 87 bd 46 89 77 bd ee 06 c1 3e 2b a6 ed be
       -0.06604112 -0.06043365 0.377006 -0.4641584
000200 8a 22 99 3e 1c 0c ab bb 48 0d f6 3b 8c 35 39 3e
       0.29909164 -0.0052199494 0.0075089075 0.18086833
000210 77 a5 a9 be d8 55 4b bd 2b 50 5c 3d d8 b2 5a be
       -0.33134052 -0.049642414 0.05378739 -0.21357286
000220 3c 63 6c 3e 56 15 6b bd 91 57 e9 bd be 4d 8d 3e
       0.2308473 -0.057393394 -0.11393655 0.27598375
000230 a2 22 12 bf 7f 76 00 bf 9c 80 7a 3c c7 72 08 3e
       -0.57084095 -0.5018081 0.015289452 0.13325034
000240 d8 e8 c7 be 94 04 72 3e 9b a8 d4 bd 2e 3a d0 be
       -0.39044833 0.23634559 -0.103837214 -0.40669388
000250 14 d1 03 3d 02 95 90 3b b1 1f fe be fc e3 92 3e
       0.032181814 0.0044122944 -0.49633554 0.28689563
000260 1a 86 64 3d 09 ea 73 3e 02 cf 0f bd 02 fd af 3e
       0.05579195 0.23819746 -0.035109527 0.34372717
000270 0c 3d 72 be ec 3f ff bd 5b 4c 4f bd dd d8 2b 3f
       -0.236561 -0.12463364 -0.050609928 0.6712778
000280 89 83 66 3e 2f a9 89 bd b5 fe af be 81 3c 0d 3f
       0.22511114 -0.06721722 -0.34374014 0.55170447
000290 0c 3e c3 be 7a ae fb bd 69 f2 00 be e0 0a 29 3e
       -0.38133276 -0.12289138 -0.12592472 0.16508055
0002a0 8c 7c ea 3e 7a bb 2c be eb ec 97 3e 09 9d c7 bd
       0.45798147 -0.16868392 0.29672942 -0.09746749
0002b0 be c3 b7 3d f8 ed 01 be 3b e8 dc 3e d7 88 4d 3e
       0.08972882 -0.12688434 0.43145928 0.20071732
0002c0 a4 11 3b 3d da 42 9d 3e 2e 0f a3 be 7f 05 e7 bd
       0.04567112 0.30715066 -0.3184752 -0.11280345
0002d0 8d aa 2a be eb 6a 97 3e 0a e4 db 3e eb d7 97 3e
       -0.16666622 0.2957376 0.42947417 0.2965692
0002e0 fd b5 9c be 78 65 0a 3f 18 90 d6 be 70 a8 96 be
       -0.30607596 0.5406108 -0.4190681 -0.29425383
0002f0 cc 71 85 3b 39 d3 1e be 2b e7 ae 3e 1c 7e c6 3e
       0.0040724035 -0.15510263 0.34160742 0.3876809
000300 c6 3b 05 3d 60 3e 18 bd 41 86 16 be 36 7c 8c be
       0.032527708 -0.03716886 -0.14699651 -0.27438515
000310 23 c7 b6 3d 08 89 88 3e c9 c8 b2 bd 06 38 a8 be
       0.08924701 0.26667047 -0.08729703 -0.32855242
000320 ee 78 f7 bc aa 28 24 bd 38 11 60 be f2 ba 2f be
       -0.030209031 -0.040077843 -0.21881568 -0.17161158
000330 11 63 f6 3d 44 a1 ce 3e af d4 f9 bb e8 c4 b3 be
       0.12030614 0.4035741 -0.007624231 -0.35111165
000340 82 73 5b 3e d4 87 8f 3d dc 10 b9 bd ae 60 33 bd
       0.21430781 0.07008329 -0.09036419 -0.043793373
000350 83 ba 30 3f 79 74 86 be f5 70 0c bf c1 e0 a0 3e
       0.69034594 -0.26260737 -0.5485986 0.31421474
000360 ba 6d 3c bd a1 6c d0 be c6 e1 95 be 68 dc 0b 3f
       -0.04600308 -0.40707877 -0.29273814 0.5463319
000370 1c ea bb be 94 0f 58 3e 2c fd 9c 3d b0 2d b4 3e
       -0.3670205 0.21099693 0.07665476 0.35191107
000380 e9 92 46 be 2c 8c ae 3e b4 b0 31 3e 49 b9 0f 3e
       -0.1939198 0.34091318 0.17352563 0.14035524
000390 24 a1 1a bd 1b eb 5a be 7b e8 7b bd be f6 8e 3d
       -0.037751332 -0.21378748 -0.061501008 0.06980656
0003a0 6b f9 24 3f fc b7 2e 3d 93 49 aa bc f7 30 9d 3e
       0.6444308 0.04265593 -0.020787036 0.3070142
0003b0 88 b4 3e 3f 3a ed 44 bd c6 88 3e be 45 7e 06 3f
       0.7449422 -0.0480778 -0.18606862 0.5253642
0003c0 b2 ae d8 be b7 ce 52 be be 23 9f be af 65 c1 bd
       -0.42320782 -0.20586668 -0.31081957 -0.09443223
0003d0 9d 8a e2 be c8 e0 72 3c c8 3e dc bd da 53 99 3e
       -0.4424638 0.0148241 -0.10754162 0.29946786
0003e0 0a 6e c3 bb b5 4a eb 3d 63 29 7d 3e ab b4 f9 3e
       -0.0059640454 0.114888586 0.24722819 0.4877065
0003f0 17 ad 74 be 93 7e b1 be b9 a6 e9 be 4d 9f aa be
       -0.23894154 -0.3466688 -0.45635012 -0.33324662

network_body._body_endoder.seq_layers.0.bias f4 [128]
000000 0a 38 3a 3b 83 fd 47 bb a3 8e 86 3a c6 83 4b bb
       0.002841475 -0.0030516095 0.0010265898 -0.0031053885
000010 af 65 18 3a 94 e6 32 bb 90 ea 55 bb 67 29 0a bb
       0.0005813492 -0.002729808 -0.003264103 -0.0021081807
000020 0e 8e 76 3a 8c 50 63 bb 31 b3 c6 ba 1f d1 c8 ba
       0.0009405323 -0.003468546 -0.0015159604 -0.0015321112
000030 ae 61 15 3b f4 7c 17 3b b0 e1 37 3b 15 28 02 ba
       0.0022793817 0.002311525 0.0028058104 -0.0004965079
000040 60 2f 80 bb fd 14 f2 3a 28 f6 c1 ba e5 72 7a bb
       -0.0039118975 0.001846939 -0.0014798092 -0.0038215455
000050 f9 5e 24 3b 76 ed a7 3b fc 43 58 bb ad 58 1b bb
       0.0025081022 0.005124743 -0.0032999506 -0.0023703978
000060 f7 26 31 3b 91 eb 7c ba 37 c1 8b b9 8f 41 ca ba
       0.0027031281 -0.0009648139 -0.00026656102 -0.0015430915
000070 be 99 79 b9 3a a0 ce 3a 31 9a ca 3a bb 19 2c bb
       -0.00023803764 0.0015764304 0.001545733 -0.0026260454
000080 9b 41 e4 3a 27 bc 2b 3a 3d db 05 bb a3 02 9b 3b
       0.0017414571 0.0006551169 -0.0020424866 0.004730539
000090 46 c0 1b bb 0c e1 12 bb 6b d9 8f 3b a8 8d bc ba
       -0.0023765727 -0.002241197 0.004389932 -0.0014385479
0000a0 2e 04 9d ba 5e 5a 79 bb 3e 0f 41 bb a8 16 2f 3a
       -0.0011979395 -0.0038048248 -0.0029458548 0.0006679096
0000b0 29 0d 9e 3a 5a 41 7e 3b 61 1e b5 ba 31 16 66 3b
       0.0012058365 0.0038796277 -0.0013818258 0.0035108442
0000c0 07 6c 68 bb 1b 2d e8 ba 93 9f 3e 3a c1 4f b3 ba
       -0.003546478 -0.0017713638 0.0007271703 -0.0013680385
0000d0 71 0f 83 3b 05 e3 e1 b9 e3 ad 9d 39 3a 35 c5 38
       0.0039996435 -0.00043084487 0.0003007493 9.403606e-05
0000e0 9a a8 14 b9 93 1c 39 bb ee ef 72 ba a9 ef 2e bb
       -0.00014177189 -0.0028245791 -0.00092673197 -0.0026693142
0000f0 06 6a 25 3a a9 f4 60 3b 6a 88 bb ba 9d 02 6b 3b
       0.0006310049 0.0034325516 -0.0014307622 0.0035859712
000100 b2 e3 14 bb d1 91 3d 3b 90 98 7b bb 24 9f a5 bb
       -0.0022718725 0.0028926025 -0.0038390495 -0.0050543714
000110 8c 78 56 3a 33 7c d3 ba 42 05 b6 3a d0 99 81 3a
       0.0008181415 -0.0016135037 0.0013887065 0.0009887759
000120 50 5f 95 39 5e 8d 79 ba a7 f8 0b ba 2e 0b 8d b9
       0.00028490508 -0.00095196615 -0.0005339481 -0.00026901945
000130 d7 18 e4 39 bc 89 76 bb fd b4 4c bb e7 7b 6e ba
       0.00043506056 -0.0037618717 -0.0031235807 -0.00090974424
000140 fe be 6e 3b c1 bb 10 3a d1 67 07 bb 69 99 3c 3b
       0.0036429758 0.00055211416 -0.0020661245 0.0028777963
000150 f6 ff f8 ba 41 5b bc 39 bc 29 64 3b 24 a6 eb ba
       -0.0018997181 0.00035926144 0.0034814915 -0.0017978591
000160 23 43 e8 3a 27 78 66 3b 59 08 16 3b d5 3d f0 3a
       0.0017720204 0.0035166831 0.002289316 0.0018328974
000170 97 2d 9f 3b dc 25 30 3b 1a 8e 46 3a 37 4b fb ba
       0.0048577297 0.0026878035 0.00075742754 -0.0019172196
000180 d5 da 66 3a a9 c7 07 3b a8 97 6c ba f1 19 88 3b
       0.0008806412 0.0020718372 -0.0009025284 0.004153483
000190 eb 78 ac ba 45 0c e0 3a 94 7f 30 3b 25 90 d3 b9
       -0.0013158595 0.00170935 0.0026931511 -0.00040352452
0001a0 a4 05 4e bb d1 72 86 3a f9 9c 3b bb c2 8f 77 3b
       -0.0031436468 0.0010257607 -0.0028627499 0.0037774895
0001b0 c0 ca 0d bb 15 5f 5f bb d7 86 02 bb 42 ac 8a b7
       -0.002163574 -0.0034083773 -0.0019916797 -1.6531096e-05
0001c0 c6 43 d6 ba 31 72 01 3b 2e 6e 1f 38 bc 34 ad 3a
       -0.0016347102 0.0019751901 3.8011167e-05 0.0013214569
0001d0 23 e3 66 bb 91 84 f1 3a e1 87 17 ba 5b 04 cc b9
       -0.00352306 0.0018426349 -0.00057804404 -0.00038913157
0001e0 d4 eb 9a b8 93 91 85 bb a4 f8 61 bb fc 31 10 3b
       -7.387219e-05 -0.0040761917 -0.0034480477 0.002200245
0001f0 d0 bb a5 3b 79 ae 7a bb 2e c9 d1 3a fc db 5b bb
       0.0050577894 -0.0038250966 0.0016005391 -0.003354787

network_body._body_endoder.seq_layers.2.weight f4 [128, 128]
000000 ba dd 49 3d 9c 88 2d bc 0e 63 2d 3e 45 7c b3 bd
       0.04928372 -0.010591652 0.16932318 -0.08763937
000010 31 23 80 bd d5 a3 da bd 56 cb 36 bc a6 c1 48 bc
       -0.06256712 -0.1067578 -0.0111568775 -0.012253201
000020 ce 7e c4 bd 0c 99 22 3e fb 61 f7 bb 55 f9 c2 bb
       -0.095944986 0.15878695 -0.007549522 -0.005950133
000030 14 b9 b9 3d 2e d9 5b b8 8d de f0 bd e1 e0 22 be
       0.09068504 -5.2415933e-05 -0.11761198 -0.15906097
000040 44 ea 2a bd e6 be 7a 3d 69 08 e9 3d d8 9f cf 3d
       -0.04172732 0.06121721 0.11378557 0.1013791
000050 29 be 6f bd db a7 ba 3c ed ba 10 be 51 ed 3c bd
       -0.05853096 0.022785118 -0.14133807 -0.04612476
000060 70 70 cc 3d 33 9e cb 3d b4 6c 95 3d 72 33 ff bc
       0.09982383 0.099422835 0.07296124 -0.03115246
000070 41 06 5f bb 75 d6 91 3d 7a b4 a1 bc bb 94 71 bc
       -0.0034030827 0.071209826 -0.019739378 -0.014744933
000080 f5 fd af 3d a0 6e de 3c 26 5f 98 3d 46 60 26 bd
       0.0859336 0.02715236 0.07440023 -0.040619157
000090 1b 1f 82 be 36 58 cb 3d 5d 26 c5 bd 31 41 09 bd
       -0.25414357 0.09928934 -0.09626458 -0.033509437
0000a0 86 09 e3 bd cd 89 16 be f0 d9 dd bd 5a ce 0d bd
       -0.11085801 -0.14701004 -0.10832584 -0.03462062
0000b0 77 c0 0e bd ca 36 ca 3d c3 bf d2 bd de 72 2d bc
       -0.034851518 0.098737314 -0.10290482 -0.0105864685
0000c0 96 2c 52 bd 18 a3 e6 3d 16 7f c8 3d a4 ee 87 3c
       -0.05131205 0.112615764 0.09789865 0.016593285
0000d0 a1 1c b8 bc 10 9b 78 bd 1b 04 92 bb 50 99 0d 3e
       -0.022474589 -0.060694754 -0.004456056 0.13828015
0000e0 67 01 45 3d 70 f5 c9 3d fe 53 5c bc 98 30 b3 ba
       0.04809704 0.098612666 -0.01344776 -0.0013671098
0000f0 17 f2 26 bd 6e 4e e1 bd 8a 35 c9 bd 9b e5 62 bd
       -0.04075822 -0.110012874 -0.09824665 -0.05539475
000100 63 e3 21 bd 97 76 b0 bc a3 f2 c8 3d 3f 3c 9f 3c
       -0.039523493 -0.021540923 0.09811904 0.019437907
000110 f2 f7 bd 3a 28 09 f3 bc 8c 25 0e be c4 50 90 3d
       0.0014493449 -0.029667452 -0.1388151 0.07046655
000120 24 78 1e be 88 03 67 3e 78 fb a8 bd e7 f1 f2 bc
       -0.15475518 0.22559941 -0.08251089 -0.029656364
000130 7a d1 24 3e c1 2d 36 3d 99 dc e6 3c bc 28 7b bd
       0.16095534 0.044477228 0.028181361 -0.061318144
000140 7b 2a b7 bb c0 57 2e 3d 41 20 bf bd 9a 4b 30 bd
       -0.005589781 0.042564154 -0.09332324 -0.04304085
000150 ca 7f 1f bc 0d 48 f2 bc 10 5a fe bd ec 70 e1 bd
       -0.009735057 -0.029575372 -0.12419522 -0.11007866
000160 1f 21 83 3d de dc 1e 3c 15 b1 58 bd 19 14 a1 3c
       0.06402802 0.0096962135 -0.052903254 0.019662904
000170 9a b9 a4 bd 1e f3 84 bd 55 7b 90 3c 45 0f d4 3d
       -0.08043213 -0.064916834 0.017636934 0.10354475
000180 c0 90 b1 bd df c5 7d bd 85 3b b7 3c 94 67 39 3d
       -0.08670187 -0.061956283 0.022367248 0.045264795
000190 e2 08 41 3e 6a 10 93 bd 59 f2 d8 bd 1e 27 99 bd
       0.18851045 -0.07180865 -0.10593099 -0.07478164
0001a0 cc 00 fe 3d d9 39 04 ba ee ab 28 3d 2d 78 47 be
       0.12402496 -0.00050440204 0.04117959 -0.19479437
0001b0 2d f4 c2 3c b7 f9 fe 3b 72 da c5 bd 40 3c 27 3d
       0.023798073 0.007781233 -0.09660806 0.040828943
0001c0 f5 f0 34 be 85 47 74 3d aa 08 28 bc fe 89 a0 bc
       -0.17670043 0.05963852 -0.010255972 -0.01959705
0001d0 a3 0f 88 3c 2b a0 b3 bd c7 a3 0f bd 4b 08 f2 3d
       0.016609019 -0.08770784 -0.0350683 0.11817988
0001e0 40 8e 28 bc b7 b1 1d bc 29 df ae 3d f9 24 d0 bd
       -0.010287821 -0.00962489 0.08538658 -0.10163302
0001f0 70 a7 b1 3d 80 81 99 bd 24 44 22 3e 83 f9 e1 bd
       0.08674514 -0.07495403 0.15846306 -0.11033919
000200 dd bf 44 bd 9d f5 c0 bd 4e aa 9c 3d 78 b5 12 bd
       -0.048034538 -0.09421847 0.076496705 -0.035817593
000210 cf e1 22 3e 7f 22 e5 3d a1 2e d6 3d 37 46 eb bc
       0.15906452 0.1118822 0.104581125 -0.028720004
000220 d0 68 cb 3d 33 79 ca bd 9f 28 c9 3d e3 f5 dc 3d
       0.09932101 -0.09886398 0.09822201 0.10789087
000230 b9 aa e3 bd 9d aa 07 be 65 d2 45 3e f7 dc 90 bd
       -0.11116547 -0.13248678 0.1931854 -0.07073396
000240 b1 c9 f1 bd f6 41 26 bc 81 90 87 bd 66 9e 8a bd
       -0.11806048 -0.010147562 -0.06619359 -0.06768493
000250 8b e5 4d bd 7c 3c 30 3d 3e b6 59 be b8 8f 0c bc
       -0.050267737 0.043026432 -0.21260926 -0.008579187
000260 7e 55 bd 3d ea 4f eb 3c 1c 0d 36 bc 72 e2 02 3d
       0.09244822 0.02872463 -0.011111524 0.031954236
000270 d9 b9 3d 3d 45 c2 4b 3d 2a 0b e1 3c 81 7f 93 3d
       0.046319816 0.049745817 0.027471144 0.07202054
000280 49 f9 53 be 53 eb 27 3d 39 95 e3 bb 09 44 dc 3c
       -0.20700563 0.040995907 -0.006945279 0.02688791
000290 27 5e 62 3e 74 50 8c bd 8f 82 89 3d 3b 44 26 bd
       0.22106229 -0.06851283 0.06714355 -0.040592413
0002a0 be 2d 3d 3c 2b 00 49 bd 3f 9f 53 3d 3c 8a ab 3d
       0.01154655 -0.049072426 0.05166554 0.083759755
0002b0 49 37 26 3e 9a 96 ed bd 2e 84 9e bd 99 ea e3 3d
       0.16232027 -0.116009906 -0.07740055 0.1112873
0002c0 cc 7a d7 bd d7 d5 86 bd ef 2f 85 bc b1 ea c9 bd
       -0.105214685 -0.065837555 -0.016258208 -0.09859217
0002d0 4c a5 ae 3b 91 ad 3e 3d 8a 62 de 3d fa ab c5 3c
       0.0053297635 0.046552245 0.108586386 0.024129856
0002e0 5f 5a 56 3d 1c 6d cc bd 68 ff a6 3d 22 9b 03 bd
       0.05233228 -0.099817485 0.081541836 -0.032130368
0002f0 85 22 c2 bd 2d e5 ef bd 65 16 b7 bd 3b b4 c7 bc
       -0.0947924 -0.11713634 -0.08939818 -0.024377933
000300 b5 67 39 bc eb 17 b6 3c 28 cb 3c 3d bf 2b 50 3e
       -0.01131623 0.022228202 0.046092182 0.20329188
000310 ba 06 c8 bd 86 6c 4e bd b9 8e ae bc df 94 d6 3d
       -0.09766908 -0.050396465 -0.02130829 0.10477614
000320 91 cc f3 bc 0a 40 67 bc 65 14 b1 3d 8f 11 b4 3c
       -0.02976063 -0.014114389 0.08646468 0.021981029
000330 8f f0 d7 3b 0e 34 2d 3b 3f b7 36 3d ec 69 11 bd
       0.006589956 0.0026428732 0.04460835 -0.035501406
000340 23 19 ee bd 12 78 c1 3b eb 26 09 bd 15 de 98 bc
       -0.11625888 0.005904206 -0.03348438 -0.018660584
000350 28 a2 c2 3b 75 a6 a6 3d df 6b 9a 3b b2 4c 54 bd
       0.0059397407 0.08137218 0.0047125663 -0.051830955
000360 8e c0 ae 3d c5 b7 39 bd fa 90 81 bd e1 b1 21 be
       0.08532821 -0.045341272 -0.0632648 -0.15790512
000370 14 9b bc 3d 96 11 0e bd c4 35 06 bd 23 60 e4 bc
       0.09209266 -0.03468474 -0.03276612 -0.027877873
000380 21 39 c3 3d c9 93 2c 3d e1 08 e2 bc f1 76 45 bd
       0.09532381 0.042133126 -0.027592124 -0.048209134
000390 03 ef 8a bb a9 1b c3 3d d6 74 7a bd 7a c7 2a b9
       -0.004239918 0.0952676 -0.06114658 -0.00016286774
0003a0 8a 7a 8b 3d 8f 0d 11 be 21 93 02 be 62 20 c7 3d
       0.06810482 -0.14165328 -0.12751438 0.097229734
0003b0 81 e1 b9 3d e9 cf d5 3c fd 17 25 3e 26 80 7e ba
       0.090762146 0.026100116 0.16122432 -0.00097084267
0003c0 67 8d f9 bd 5f cd d7 3c 9e 9a 8c bd 31 16 c3 bd
       -0.121851735 0.026343046 -0.068654284 -0.09525717
0003d0 03 1e b4 bd 90 c0 09 bd ca 3f c6 3d 4c ff f0 3c
       -0.08794787 -0.033630908 0.096801355 0.02941861
0003e0 dd 2c cc 3d 42 e5 f3 bd ac 26 69 3d f3 38 30 3e
       0.099694945 -0.11908962 0.056921646 0.17209224
0003f0 07 84 2f 3e 83 5b 9a bc 4f d3 aa bd f6 00 c9 3c
       0.17140208 -0.018842464 -0.08341085 0.024536591

network_body._body_endoder.seq_layers.2.bias f4 [128]
000000 36 45 c0 ba 29 cd 1c 3b 73 d7 f2 b9 3c 63 9a ba
       -0.0014669064 0.0023925996 -0.0004631836 -0.0011778842
000010 5a ff 78 39 dd 2a 52 bb 9e 21 35 39 98 fd a1 bb
       0.00023746249 -0.0032069006 0.00017274029 -0.004943561
000020 82 26 83 bb c4 05 a3 b9 0d 47 84 b8 67 c4 7a b9
       -0.004002393 -0.00031094078 -6.307485e-05 -0.00023915023
000030 8f 7f 48 ba 55 ec 9b ba 91 1e 22 b9 c0 e2 1d bb
       -0.0007648402 -0.0011895994 -0.00015460911 -0.0024091452
000040 64 35 2f ba eb 5c 4b bb fc f8 18 3a 52 21 50 ba
       -0.0006683676 -0.0031030725 0.00058354414 -0.00079395354
000050 ec 56 9c 3a fe 11 0b 3b ba 87 3b bb 3b 0f 0d 3b
       0.001192776 0.002122044 -0.0028614835 0.002152397
000060 ba 55 08 3b 27 ec 56 ba b0 7d 6a ba 39 88 99 ba
       0.002080305 -0.00081986416 -0.00089451205 -0.0011713571
000070 e4 62 78 3a 1c e5 4d 3a 76 11 15 3a 29 8a 19 bb
       0.0009475185 0.00078542694 0.0005686501 -0.0023428297
000080 95 26 7d bb 9d fb 65 bb 82 41 43 ba 6f d1 bd ba
       -0.0038627733 -0.00350926 -0.0007448421 -0.0014481972
000090 6d 73 2a 3b de dd 19 bb 1b 52 05 b9 63 27 5a ba
       0.002600874 -0.002347819 -0.00012714455 -0.0008321909
0000a0 01 14 e1 3a 90 77 36 3b a5 d9 53 ba 24 4e 5e bb
       0.0017172099 0.002784226 -0.0008081443 -0.0033921087
0000b0 74 aa 1a bb 5a c8 40 bb 33 a8 57 3b c3 2a be 3a
       -0.0023600133 -0.0029416294 0.003290665 0.0014508594
0000c0 d7 59 93 ba ab 73 c1 ba 4e 2f 20 3b 6a ee 88 bb
       -0.0011241984 -0.0014759203 0.0024442258 -0.004178812
0000d0 56 36 3b bb f4 0e 33 b9 6f b0 5c bb 16 82 88 3a
       -0.0028566322 -0.00017076341 -0.0033674499 0.0010414745
0000e0 4c da 25 bb 44 47 f9 b7 d4 39 27 3a 8e b7 66 3a
       -0.0025307117 -2.9716299e-05 0.00063791615 0.00088011555
0000f0 50 40 8f bb 5f 91 3a 3b a5 7f 32 ba 84 43 de 39
       -0.0043716803 0.0028467996 -0.00068091817 0.00042393443
000100 f9 f1 85 3a b5 e7 19 bb 53 73 d9 b9 09 3b 22 bb
       0.0010219208 -0.0023484055 -0.0004147539 -0.0024754426
000110 53 c3 75 39 0b c0 1c 3b b4 37 97 b9 49 27 10 bb
       0.00023437785 0.0023918177 -0.00028842466 -0.0021996072
000120 0d 2a d4 ba 23 b8 49 3b dd c0 51 bb 62 e0 8c ba
       -0.0016186849 0.003077992 -0.0032005825 -0.0010748024
000130 bc be 38 3b e1 fd 0a 3b 58 9b 50 ba de 10 2f 3b
       0.0028189858 0.0021208453 -0.00079577183 0.0026712934
000140 1b 49 c0 3a ce 87 ad ba 87 14 c4 3a d8 18 35 3a
       0.0014670225 -0.0013239325 0.0014959731 0.0006908304
000150 c1 70 35 3a 50 37 66 ba c3 67 0e 3b 6f 75 e3 ba
       0.00069214037 -0.0008782046 0.0021729327 -0.0017353724
000160 c4 04 8f bb c6 3f 93 b9 ba 99 28 bb 44 69 3e bb
       -0.004364582 -0.0002808554 -0.0025726394 -0.0029054442
000170 31 5e 89 3a 37 7a 77 3a ff 16 86 ba 0f 4d 3b 3b
       0.0010480342 0.00094405137 -0.0010230242 0.0028579866
000180 d7 8b c8 39 4a da 9d 37 78 81 b8 38 dd a1 cd ba
       0.00038251161 1.8817507e-05 8.797919e-05 -0.0015688498
000190 7c c5 09 ba 7a 3f 14 3a 8c 22 86 bb 59 3f 18 3b
       -0.0005255563 0.00056552107 -0.004093474 0.0023231118
0001a0 f8 6d d8 3a 49 3b f9 3a cf f7 0d bc 03 3d 83 bb
       0.0016512265 0.0019014861 -0.008665039 -0.004005076
0001b0 5d 50 d7 39 7b 2a 1d bb 4f 07 4b ba a3 1a c5 b8
       0.0004106787 -0.002398162 -0.00077449245 -9.3986535e-05
0001c0 08 3f 5a 3b 6e 95 91 3a d1 aa c1 3a e3 77 51 bb
       0.003330173 0.0011107156 0.0014775639 -0.0031962327
0001d0 3d 5c 4c ba b9 85 05 3a 18 22 56 ba e5 d8 b0 3b
       -0.0007795727 0.00050934736 -0.00081685325 0.0053969496
0001e0 24 d4 73 ba 49 04 af b9 1f 96 d3 ba 50 68 71 bb
       -0.0009301326 -0.00033381794 -0.0016142762 -0.0036835857
0001f0 e8 51 89 bb e1 ef 92 3b f0 a3 4e 3b 77 5a f1 ba
       -0.004190672 0.004484162 0.003153082 -0.0018413801

action_model._continuous_distribution.mu.weight f4 [1, 128]
000000 1c 1a f9 3c f7 91 0e bd 02 4b d2 3c 0d ea 1c 3c
       0.030407958 -0.03480717 0.025670532 0.009577286
000010 a6 f6 1f 3c ec a1 b7 bc cd ed a1 3c e2 62 14 bc
       0.009763395 -0.022416078 0.019766713 -0.009056779
000020 fb e5 b6 bb 95 7e 56 ba 8b 45 a0 bb 2b 14 61 3c
       -0.005581615 -0.00081823143 -0.0048911027 0.013737719
000030 b5 43 88 3b c7 16 b1 3c 51 9b 9d bc d0 0a 83 3c
       0.004158462 0.021617306 -0.0192391 0.015996367
000040 8f 9e 92 3c 59 07 8a bb 4a db d4 ba 4c 25 6a 39
       0.017897872 -0.0042123017 -0.001623967 0.00022329873
000050 7a 6a 36 3c 96 29 48 3d f2 88 a8 3c 31 e5 61 3c
       0.011133784 0.048867784 0.020573113 0.013787554
000060 57 47 00 3c 3d 5b 67 3c 7c 9e b3 3c a7 2f 94 3c
       0.007829509 0.014120874 0.021926157 0.018089129
000070 71 41 b4 bb 77 64 1b bb f7 c2 4d bb bf 7e 5d b9
       -0.0055009653 -0.0023711005 -0.0031396726 -0.00021123419
000080 b2 42 15 b8 04 1c 87 39 60 d1 8e 3c 96 3b cd 3b
       -3.5586483e-05 0.0002577008 0.017433822 0.0062632067
000090 1b 7e a2 3b c5 a4 5a bc 82 8f 89 bc f7 b4 1b bc
       0.0049588806 -0.013344948 -0.016792063 -0.009503595
0000a0 76 36 a4 bb 48 1a ab bb 3c af b3 bc 37 bf ac ba
       -0.005011375 -0.005221639 -0.021934144 -0.0013179545
0000b0 3c 0a 9f 3c dd e0 f1 3b 7e c3 11 bc 74 47 23 bc
       0.01941406 0.007381542 -0.008896707 -0.009965766
0000c0 d7 35 0d 3d b1 c7 ab bc 27 cb 3f bd dd d5 d3 b9
       0.034475174 -0.020969244 -0.0468246 -0.00040404397
0000d0 07 34 51 3a 8e b7 a8 3c 6e a8 b5 3b 04 e0 63 bc
       0.000798047 0.020595338 0.00554376 -0.01390839
0000e0 54 d6 df bb d4 fe 8b bb 3c 30 06 bc 10 cd 26 3d
       -0.00683097 -0.0042723212 -0.008190211 0.040722907
0000f0 91 c6 31 bc 2f 43 f6 3b 54 50 6e bc b4 26 59 3c
       -0.010850565 0.007515333 -0.014545519 0.013253856
000100 40 46 1f bd bb 5c 8d 3c 6a 54 2a 3c 31 5e 5f 3c
       -0.038885355 0.017256131 0.010396102 0.013633297
000110 36 f9 8c 3b 4f 0d 82 bc 9d 4f ed bb ea 5f 3c bc
       0.004302169 -0.015875487 -0.0072421567 -0.011497477
000120 0a 46 c9 3b e1 c9 ea bc b2 66 6a bc ac aa 1c 3c
       0.0061423825 -0.028660716 -0.014306711 0.009562176
000130 bc 4c 08 bd 0c 8a 01 3d fe 7b d2 3a 6f 80 5f bc
       -0.033276305 0.031625792 0.0016058681 -0.013641461
000140 4a 71 67 bc 22 e9 14 3d 7a 2f f7 bc 8f b4 2d bc
       -0.014126131 0.036355145 -0.030174006 -0.010602131
000150 4a 2a d8 bc 09 dd b2 bc bf 50 0f bc 70 ed d2 3b
       -0.026387352 -0.021833913 -0.008747279 0.006436996
000160 58 88 08 bc 80 20 0b bd 18 44 77 3a 7f 94 1c bc
       -0.008333288 -0.03396654 0.0009432449 -0.009556889
000170 2b 67 a2 bb 9f 7c c1 3b 9b 18 a7 3b ae 31 27 bc
       -0.0049561462 0.0059047486 0.0050993687 -0.010204716
000180 43 1a 03 bd 5d 21 97 3c eb 3f 6c 3c 3f 1d 43 bc
       -0.032007467 0.018448526 0.014419536 -0.011908828
000190 98 c2 9b ba 5f 1e 72 bc b9 91 b5 bc f6 13 14 3d
       -0.0011883555 -0.014777749 -0.022164213 0.03615185
0001a0 a8 34 9a bc 8a 97 9b 3c a1 ea fe 39 ce 18 96 bc
       -0.018823937 0.018993158 0.00048621467 -0.018322375
0001b0 12 32 4d bc 9b 79 0f bc 80 0f 9e 3c 4c 9c 84 bb
       -0.012524145 -0.00875702 0.0192945 -0.0040469524
0001c0 6e 2b d1 bc f9 02 49 3c 15 17 aa bc 60 63 74 3c
       -0.025533404 0.012268775 -0.02076296 0.014916271
0001d0 db 62 e8 3b 1a ab 9c bb 92 58 09 3d 3a de 8c bc
       0.0070918626 -0.004781139 0.033531733 -0.01719581
0001e0 04 b2 c4 3c dd c1 ad 3b bd 1f 24 38 fa 9c f4 b7
       0.024010666 0.0053026513 3.9130206e-05 -2.9160165e-05
0001f0 1a 0a 46 bb ff 4d b8 bb 09 82 44 bc db c6 98 3b
       -0.0030218423 -0.0056245322 -0.011993893 0.0046623773
