Assets/Games/Race/AI/Brain/My Behavior4.onnx (onnx, 77139 bytes, 5 tensors)

network_body._body_endoder.seq_layers.0.weight f4 [128, 11]
00000000: 79e8 94be d0f2 85bd 841e 99be 532c 1ebf
00000010: e1d9 90be e522 92be f4d0 c4be 1a9a 3f3d
00000020: 0cc6 cabd b253 713e 1c4a 9bbc 79d1 b33e
00000030: d069 9f3d b1d7 7ebe c283 a53e f3a9 89bd
00000040: 6441 d33d e27b 793e 593a 07be e169 05be
00000050: c07d db3d ccc6 b9be efc7 d9bd 1af7 603e
00000060: 06cc 6fbe d50b 5c3e 8f0c 32bc 7c76 533d
00000070: 6228 1a3f 591a 32be ba57 e63d 6573 843e
00000080: e6a9 173e 7190 823e c23b 90be 04dd 49be
00000090: 0498 9fbe b82b e5be 0937 62bb e691 0b3d
000000a0: 33f4 363d 7713 213f 912a b33e 67b2 22be
000000b0: 152e 83be 834c 4c3d 6390 5ebd 4445 29be
000000c0: 6550 073e 494c 4f3f d444 6a3e 414c bf3e
000000d0: 60a9 bcbd 2b3f f8be 7378 95bd 891f 853d
000000e0: d2c8 763d 3154 bdbe 84af eabc 4cc5 85be
000000f0: 7aa1 c2be 26d1 1e3e 2760 a63e 8e7f 0cbe
00000100: b66b a03e 12fd 83be a533 983a 01db cd3e
00000110: 2e7c b93e f263 14bf 1596 3dbf 670b c5bd
00000120: 0cf2 843e 0dbd fb3e da1e 85be 9cac b43c
00000130: bfb4 8f3d 0edc 2dbd 96f9 4b3e 623c 76be
00000140: a8a6 85be 5653 b3be 491f f9be 5402 8d3e
00000150: cfbb d73e 2fdf bb3e cdb4 d3be 437f 433e
00000160: 4757 ed3d 74a8 a73e f892 813e aa07 c13e
00000170: 56ba 33be 7748 b53d 0d82 1abf 52e2 bfbc
00000180: db02 49be 704a 99be 2b3d 153f a536 16bf
00000190: a096 0ebe 1154 983e c2d8 8dbc 9e4a 77bd
000001a0: 06ac 37be 3a5f 073f 5d07 37bd 26eb 1abf
000001b0: 9e8b 0d3e 7a16 813d 2d41 17bd ec32 54be
000001c0: 3272 6e3f e62e bc3d f275 2f3d c4d6 b23e
000001d0: b44a 25be 9dd3 003f 6b79 813e a5b8 8b3d
000001e0: d1cb 203e 8c20 95bd 94c0 2c3e 8d53 3f3f
000001f0: db07 8dbd 502a 6cbd 3cae c13e f7b0 efbe
00000200: cb27 963e cc0d 90bb cb67 e33b c704 3c3e
00000210: 77a5 a9be fb3f 7cbd 2b50 5c3d 50a5 5cbe
00000220: 28bf 6b3e d859 8dbd 780c f4bd 3a35 8a3e
00000230: c431 15bf 47f3 00bf 1894 673c 68c7 033e
00000240: 7e1e cabe d22d 6d3e 78b3 dcbd 20c0 d2be
00000250: 3d5a e33c 315e 0e3b 98a5 fbbe 2a8f 903e
00000260: 6943 513d 27de 6e3e 87e0 0dbd 08e4 ad3e
00000270: f573 76be 2953 04be 41c0 2abd aafb 2a3f
00000280: 9dd0 603e 771f 8fbd 7fe6 afbe a92c 0c3f
00000290: 9e1a bfbe 66d9 febd 370f 04be 033c 233e
000002a0: 2ff4 e73e 72dc 2dbe 85bb 973e 1e6a d1bd
000002b0: 251e b53d a49b 03be 5302 da3e dd6b 4c3e
000002c0: bd7a 3a3d cf43 9c3e a419 a4be b202 ecbd
000002d0: 297b 2dbe c46c 953e 3b94 da3e 8a72 993e
000002e0: 93d0 9cbe 78df 093f 6517 d9be 6dab 93be
000002f0: bb43 fc3b fec9 18be af21 b03e be4b c73e
00000300: 5403 0a3d c608 09bd 63ad 17be 0283 89be
00000310: 249a c23d af56 893e 43a6 abbd 20cf a5be
00000320: ee78 f7bc 4ac0 11bd 7f4a 5cbe 3f5b 29be
00000330: 4d04 ff3d 73ce cf3e 4f63 86bb d277 b1be
00000340: 1773 5f3e ebd6 8c3d 283a c8bd 0977 5ebd
00000350: 3eec 2e3f 3aa6 89be a5fb 0dbf 6d27 a03e
00000360: bb1d 47bd 603d d1be 7b81 9bbe 3440 0a3f
00000370: 6af4 bbbe 9a49 4b3e 2cfd 9c3d bd2a b93e
00000380: e992 46be fb5f a73e 7719 393e 1277 073e
00000390: 369e 4dbd 93f2 50be aaa6 9abd dc74 903d
000003a0: cb2e 253f b684 293d e134 a1bc 17e8 9e3e
000003b0: 0b9e 3e3f 2d8e 46bd eeaf 39be 33ae 063f
000003c0: e546 d9be c5c4 4fbe 7d84 9fbe 6759 c6bd
000003d0: bab2 e2be a1bf 573c 947b edbd 6893 973e
000003e0: 233e e1bb 104a ec3d a158 7c3e 3f76 f93e
000003f0: fd23 7dbe 38a9 b1be 087f eabe 92d1 aabe
-0.29083613 -0.065404534 -0.29906094 -0.61786383 -0.28291228 -0.28542247 -0.3844067 0.046777822
-0.09901056 0.23567083 -0.018956237 0.35120752 0.07783854 -0.24886967 0.32327086 -0.06721868
0.10315207 0.24363664 -0.13205852 -0.13028671 0.10717344 -0.36284482 -0.106338374 0.21969262
-0.23417673 0.21488889 -0.010867252 0.051626667 0.6021787 -0.17392863 0.11247201 0.2586929
0.14810905 0.25500825 -0.28170592 -0.19713217 -0.31170666 -0.44759917 -0.0034517667 0.034074686
0.04466648 0.62920326 0.34993413 -0.15888368 -0.25621095 0.049877655 -0.054336917 -0.16530329
0.13214262 0.80975777 0.22877818 0.37362865 -0.09211993 -0.48485693 -0.072983645 0.065001555
0.06025011 -0.36978295 -0.028648145 -0.26127088 -0.38013822 0.15509471 0.32495233 -0.13720533
0.31332177 -0.25779015 0.0011612071 0.4020615 0.36227554 -0.57965004 -0.7405713 -0.096213154
0.25965917 0.49167672 -0.260001 0.022054963 0.070168965 -0.04244619 0.19919428 -0.24046472
-0.2610371 -0.35024518 -0.4865668 0.2754084 0.42135474 0.36693713 -0.41348878 0.19091515
0.115889125 0.32745707 0.2530744 0.3770116 -0.1755155 0.08851712 -0.6035469 -0.023423348
-0.19629996 -0.29939604 0.5829646 -0.5867713 -0.13924646 0.29751638 -0.017315272 -0.060373895
-0.17936715 0.5287968 -0.044684757 -0.6051506 0.13822791 0.06303115 -0.03692739 -0.2072255
0.93143 0.09188633 0.04283709 0.34929478 -0.16141778 0.50322896 0.25287947 0.068223275
0.1570275 -0.072815984 0.16870338 0.74736863 -0.06886264 -0.05765754 0.37828243 -0.468147
0.29327235 -0.004396176 0.0069398633 0.18361197 -0.33134052 -0.061584454 0.05378739 -0.21547437
0.23022139 -0.06901902 -0.11916441 0.26993734 -0.5827906 -0.5037121 0.014134429 0.12869036
-0.3947639 0.2316201 -0.107764184 -0.41162205 0.02775299 0.0021723623 -0.49149776 0.28234226
0.051089678 0.23326932 -0.034637954 0.33963037 -0.24067672 -0.12922348 -0.041687254 0.6679026
0.2195458 -0.06988423 -0.34355542 0.54755646 -0.37324995 -0.12443809 -0.12896429 0.15940861
0.45303485 -0.16978624 0.29635254 -0.10225318 0.0884364 -0.12852341 0.42579898 0.19963022
0.04552721 0.30520484 -0.32050812 -0.115239516 -0.16941513 0.29184544 0.42691216 0.299702
-0.3062788 0.5385661 -0.4240066 -0.28841725 0.007698504 -0.14920804 0.344007 0.38924974
0.03369458 -0.033455633 -0.14812236 -0.26857764 0.09502056 0.26823947 -0.08381321 -0.32384586
-0.030209031 -0.03558377 -0.21512793 -0.16538714 0.12451992 0.40587196 -0.004101194 -0.34661728
0.21821247 0.0687693 -0.097767174 -0.05431274 0.68329227 -0.26884633 -0.55462104 0.3128008
-0.048612338 -0.40867138 -0.30372223 0.54004216 -0.3670991 0.19852296 0.07665476 0.3616542
-0.1939198 0.32690415 0.1807612 0.13229015 -0.05019971 -0.20405035 -0.0755132 0.07053539
0.64524525 0.04138633 -0.019678535 0.31036445 0.74459904 -0.048475433 -0.18133518 0.52609557
-0.424369 -0.20289905 -0.31155768 -0.09685021 -0.44276983 0.0131682465 -0.11595836 0.2960465
-0.0068738624 0.11537564 0.24643184 0.48723027 -0.2472076 -0.34699416 -0.45800042 -0.33363014

network_body._body_endoder.seq_layers.0.bias f4 [128]
00000000: ea9a 883b 44ad 4c3b b32d dc3b 6bf8 093a
00000010: e66f 58bb ce75 d039 3b19 433b f0ae ddbb
00000020: 3c03 b23b 916c eebb 1726 bdba b2bd 73bb
00000030: bf8e c8bb e711 c3ba e6b2 29bb 50ef 8bbb
00000040: 9cb8 d3bb 0fb9 863b 9997 3d3b de60 febb
00000050: 41cb c7bb 8578 b43b 23a0 89bb 084a 90bb
00000060: b239 d93b d3b0 283b f829 9dba c8fc afbb
00000070: bd81 563b 2085 8a3a 0157 d93a 1244 493a
00000080: d172 bb3b 8e09 253b 51e0 d7ba a329 353c
00000090: e070 3fbb ed12 bebb 3b9d f03b c88b da3a
000000a0: 5c4d 89bb f130 f9bb c65e 4d39 1530 9bbb
000000b0: 5fa5 6d39 32d0 1638 dc33 b4ba c960 1a3a
000000c0: f7fe 8b39 ecc0 2ebb 14c8 703b 9aa8 9e3a
000000d0: 77bf 053c 3d45 25bc abff 813b 7db6 0b3b
000000e0: 1be7 b73b 21bf 85bb 87d7 9bbb a6b5 5cbb
000000f0: a89b 9c3a 368c ad3b 4e1f f8bb c86a f0b9
00000100: 2045 b2ba ff5b 47b9 6173 4ebb f925 b3bb
00000110: 3423 bd3a 8ea7 513b 25cf 923b 7630 1ebb
00000120: 8d07 16bc 0432 77bb 8d94 aa3b e39d febb
00000130: c1c5 faba 4f21 acbb 42ed cdb8 757c 3eba
00000140: e054 723b cc50 2d3c 4e9a 2dba c86d ff3a
00000150: 8cc9 f03a 52e5 ccbb 4097 363c ddb2 dabb
00000160: 275e 29bc 8702 4538 0972 c73b 2ddf 23bb
00000170: b0a5 b23b 6dcf 1cbb b2c0 c73a 5d6f c6ba
00000180: 2fa8 a33b 5682 8b3b 4d27 093b b0dc 0f3c
00000190: 610c 12bb 21a5 b3ba 7401 ad3a 1666 30bb
000001a0: bdbc a0ba 9186 17bb 9ac8 92bb e109 f03b
000001b0: baf8 3ebb 2c41 f7bb 9558 d9ba a673 143a
000001c0: 5383 a1bb 3c26 3a3c 0108 ccb9 cf76 85b8
000001d0: 5ffd c8bb 2205 ac3b f655 93bb 8ae7 9a3b
000001e0: ea7d 823b ce83 0abc f6f3 8f3a c79e af3b
000001f0: 4ad1 e73a f9a1 f4bb 6f27 d13b dee4 efbb
0.004168858 0.0031231204 0.006719315 0.00052631524 -0.003302568 0.00039760623 0.0029769677 -0.006765239
0.0054325145 -0.0072761257 -0.0014430907 -0.0037191925 -0.0061205323 -0.0014882655 -0.0025893985 -0.0042704716
-0.006461216 0.004111416 0.002892947 -0.0077630123 -0.006097228 0.005507531 -0.004199998 -0.0044033565
0.0066291923 0.002574016 -0.0011990657 -0.00537071 0.0032731139 0.0010568239 0.0016581715 0.0007677685
0.0057204743 0.0025182697 -0.001647005 0.01105729 -0.0029211566 -0.005800596 0.007342962 0.0016673738
-0.00419013 -0.007604711 0.0001958563 -0.0047359564 0.00022663687 3.5956684e-05 -0.0013748365 0.0005889056
0.0002670211 -0.0026665283 0.003674035 0.001210469 0.008163325 -0.0100873085 0.0039672456 0.0021318488
0.0056122667 -0.004081622 -0.0047559175 -0.0033677607 0.0011948245 0.0052962555 -0.007572091 -0.00045855925
-0.0013600923 -0.0001901239 -0.0031501877 -0.005467173 0.0014430047 0.003199074 0.00448026 -0.0024137772
-0.009157074 -0.003771902 0.005205697 -0.0077702864 -0.0019132422 -0.005252994 -9.8193545e-05 -0.00072664703
0.003697686 0.0105783455 -0.00066224195 0.0019487673 0.0018370613 -0.006252923 0.011144459 -0.006674154
-0.010337389 4.6970814e-05 0.006086592 -0.002500485 0.0054518804 -0.0023927346 0.0015239923 -0.001513939
0.0049944143 0.0042574806 0.0020927966 0.008780643 -0.002228521 -0.0013705828 0.0013199286 -0.0026916317
-0.001226328 -0.002312098 -0.00447948 0.0073253964 -0.0029139952 -0.007545611 -0.0016582186 0.0005662985
-0.004928985 0.011361655 -0.00038915875 -6.364064e-05 -0.00613372 0.0052496353 -0.0044963313 0.0047273086
0.0039822953 -0.008454276 0.001098274 0.005359504 0.0017686274 -0.0074655977 0.0063828747 -0.0073209843

network_body._body_endoder.seq_layers.2.weight f4 [128, 128]
00000000: 6b64 823d b848 20bc 89b3 2a3e 1da0 b8bd
00000010: a4be 5fbd af14 02be 73af 4abc 66c0 7bbc
00000020: 603c cbbd f829 213e 9456 34bc 1968 1bbc
00000030: 98ce c93d 7b06 3abb d94e ebbd 37ce 25be
00000040: 5ea4 aabc 8550 6e3d 8761 e23d 0c2f c93d
00000050: 16cf 83bd 54f5 b03c a2c6 05be 849a 24bd
00000060: e1f5 c63d dbb9 d43d d312 8e3d ddc5 0cbd
00000070: f934 b4bb 7d3a 8e3d 9737 bcbc 475c cbbc
00000080: 805f b03d f4b5 0f3d 3e61 983d e5ca 2fbd
00000090: b8ce 7fbe 5e99 c43d b88c adbd 83cf 15bd
000000a0: b166 e2bd 71fb 19be 85cd ddbd d330 0dbd
000000b0: baf7 f7bc 5d11 c33d 2a4a d9bd a63d 38bc
000000c0: c9b8 31bd a601 e03d f3ad c13d c1f0 573c
000000d0: 5961 e8bb 2d86 84bd 0fa2 413c e28b 0a3e
000000e0: 8da0 3c3d 86af cb3d aa1a b2bb ed5e 633a
000000f0: a674 34bd c62f d1bd 57a5 cdbd 3057 5ebd
00000100: c5d3 22bd 4fe0 cbbc c15f c83d 0c12 ac3c
00000110: b446 a53a a914 05bd bc51 0ebe 847e 913d
00000120: 1a2a 21be 7be7 643e 6ea2 aabd d315 06bd
00000130: 6cf7 233e 433a 2b3d 615b d03c 3fb1 84bd
00000140: 4925 afbb c633 213d 8aa5 c5bd d1db 2cbd
00000150: 0e5b 51bc 3f2e 02bd a28f 02be 1249 dfbd
00000160: 3e5e 963d fb57 0c3c 4d29 63bd 1c30 863c
00000170: 99cc a4bd 2a87 89bd f5f4 933c 263a ce3d
00000180: f5e2 b6bd 22df 83bd 24c4 9b3c cb64 2e3d
00000190: 80a1 533e ddab 99bd 5faf dfbd f4e1 9fbd
000001a0: 4a5b e13d d070 9cba 3548 293d aa34 48be
000001b0: 6e8c c23c 31c4 803c eeac c9bd e1a4 1c3d
000001c0: a192 34be e972 673d 0def c4bb 16a8 adbc
000001d0: c455 873c d979 babd a6d4 eabc 85c7 eb3d
000001e0: f5ab 813b e7db 01bc 2b82 b03d 8b1e d6bd
000001f0: 3529 af3d ca27 98bd 894c 2a3e a92c d6bd
00000200: 4898 5ebd 3db8 c9bd 49ca 9d3d efdc 08bd
00000210: 4cb5 243e f850 d63d 14d9 d03d 0ede cfbc
00000220: db33 d13d 0079 d4bd d26b cc3d 219f da3d
00000230: 8b41 e1bd a916 04be a1ec 3f3e 6045 9ebd
00000240: c156 00be ac1c 59bc 9d18 85bd 4f8f 87bd
00000250: bca5 48bd 5f5b 403d a97d 59be ddf9 96bb
00000260: 9c1b c53d 13f9 c43c 1400 29bc fd14 0b3d
00000270: 3d9f 3c3d c38a 483d 2456 ff3c bed1 853d
00000280: d321 54be f482 2b3d 925f 3dbc 636f d83c
00000290: 5b75 663e c411 8abd cc94 793d 0dac 1cbd
000002a0: fe14 753c 0e27 47bd 4127 583d d92f b23d
000002b0: d844 263e 1eca e1bd 40b2 a6bd 1dfd ea3d
000002c0: ed5d d5bd d985 7ebd 593b 5bbc 6484 c5bd
000002d0: 2019 f7ba 5a4c 443d ef2f e43d cb15 b03c
000002e0: a9fa 543d bf64 cebd e072 a53d 3dd4 00bd
000002f0: de65 ccbd 27bd e8bd 6390 b7bd 82f8 d0bc
00000300: c7c2 efbb 75e6 ce3c 7485 4d3d 5684 4e3e
00000310: 1b18 d2bd 6f08 62bd 59a4 8cbc 474d d03d
00000320: e4fd 02bd 8c08 6bbc 057b ae3d 8bb2 b73c
00000330: 5add d43b 7529 353a 53b9 403d 53f7 17bd
00000340: 7d4d ecbd 6d4f fe3b fccb 03bd 5b3c bbbc
00000350: e8f4 693a b60b a63d c18c b93b 1c9d 5ebd
00000360: 8018 ac3d c4ad 2abd 8e95 7bbd 8351 1ebe
00000370: 9d2d bc3d cfaf fcbc eb55 08bd d9d9 08bd
00000380: 7cb1 b43d ec2f 1d3d 1cd5 c7bc ee31 36bd
00000390: aadc 11bc 16ba c93d 1966 75bd 0923 233b
000003a0: 557e 923d f0a5 0dbe ebb4 02be 514f cf3d
000003b0: 0f12 c13d 31d9 e53c 38c1 223e c8c1 023b
000003c0: d275 f1bd 2d5d df3c ebd5 88bd 78c7 babd
000003d0: 62d5 b0bd 70ac 12bd d7a1 ca3d 0455 c13c
000003e0: fe27 c03d 5bc7 f0bd dcaa 633d d27e 313e
000003f0: c882 333e 46d6 9fbc 182d abbd 6f05 e53c
0.063668095 -0.0097829625 0.1667005 -0.09014914 -0.05462517 -0.12703203 -0.012370932 -0.015365696
-0.09923625 0.15738666 -0.01100697 -0.009485268 0.09853858 -0.002838521 -0.11489648 -0.16191946
-0.02083033 0.05818226 0.11053758 0.098234266 -0.06435983 0.021601357 -0.13064054 -0.04018642
0.097148664 0.103870116 0.06937184 -0.034368385 -0.005499479 0.069447495 -0.022975726 -0.024824275
0.08611965 0.035085633 0.074404225 -0.042918105 -0.249812 0.09599565 -0.084741056 -0.03657485
-0.11054743 -0.15037324 -0.10830215 -0.03447039 -0.030269492 0.09524796 -0.10609849 -0.011245167
-0.043389115 0.109378144 0.09457006 0.013179959 -0.007091683 -0.064709045 0.011818423 0.13529924
0.04605155 0.09945588 -0.0054353075 0.0008673508 -0.044056557 -0.1021419 -0.10041302 -0.054282367
-0.03975274 -0.024887232 0.097838886 0.0210047 0.0012609572 -0.032490406 -0.13898367 0.07104209
-0.15738717 0.22353928 -0.08331762 -0.032735657 0.16012353 0.04180361 0.025434198 -0.064791195
-0.005345021 0.039356016 -0.09650715 -0.04220182 -0.012778057 -0.031782385 -0.12750104 -0.10902609
0.07342194 0.008565898 -0.05545931 0.016380362 -0.080468364 -0.067152336 0.01806114 0.10069685
-0.08930007 -0.064390436 0.019014426 0.042576592 0.20667076 -0.075034834 -0.10922121 -0.07806769
0.1100374 -0.0011935476 0.041328628 -0.1955134 0.023748603 0.015718551 -0.09847437 0.03824318
-0.1763406 0.05650607 -0.0060099424 -0.021198314 0.016520388 -0.09105272 -0.028665852 0.11512665
0.0039572665 -0.007925964 0.086185776 -0.10455044 0.085527815 -0.07429464 0.16630758 -0.10457737
-0.054344445 -0.09849594 0.077045985 -0.033413824 0.16084784 0.10464662 0.10197654 -0.025374439
0.10214969 -0.103746414 0.099815026 0.10674883 -0.109988295 -0.12899269 0.1874261 -0.07728076
-0.12533094 -0.013251465 -0.06498835 -0.06619131 -0.04898618 0.04696214 -0.21239342 -0.0046074227
0.09624407 0.02404455 -0.01031496 0.033955563 0.0460503 0.04896046 0.031169005 0.06534146
-0.20716028 0.041872934 -0.01155843 0.0264203 0.22505705 -0.0674167 0.06093292 -0.038250018
0.014958618 -0.04862123 0.05277181 0.087005325 0.162372 -0.11024879 -0.08139467 0.11474059
-0.104183055 -0.062139366 -0.013380849 -0.09644392 -0.0018852092 0.047924377 0.11141955 0.021494767
0.05199686 -0.100778095 0.08078551 -0.031452406 -0.09980367 -0.11364203 -0.089630865 -0.025509123
-0.0073169204 0.025256375 0.0501761 0.2016767 -0.10258504 -0.055183824 -0.01716821 0.101709895
-0.03198041 -0.014345299 0.08519558 0.022424003 0.0064961137 0.00069107796 0.04705174 -0.0371011
-0.11538217 0.007760933 -0.032176957 -0.022855928 0.00089247385 0.081077024 0.005662531 -0.05434905
0.084031105 -0.041669622 -0.061421923 -0.15460782 0.091883875 -0.03084555 -0.033285063 -0.03341088
0.08822915 0.03837578 -0.02439361 -0.04448121 -0.008902708 0.09849946 -0.05991182 0.0024892709
0.07153002 -0.13832831 -0.12764327 0.1012255 0.094272725 0.028057666 0.1589402 0.0019951928
-0.117900506 0.02726611 -0.066814266 -0.09120077 -0.086344495 -0.03580898 0.0989415 0.023600109
0.09382628 -0.11756774 0.055582866 0.17333534 0.17530358 -0.019511353 -0.0835821 0.027956693

network_body._body_endoder.seq_layers.2.bias f4 [128]
00000000: 5b5b d038 92aa 673b cd5f 823b 2c3b e639
00000010: fe0b af3b 1238 00bc 7c4a 723b c6d4 ccbb
00000020: ce78 bebb 1d5a 6dbb 9eed 8cbb 65cc 923b
00000030: d318 f7ba afe5 273b ce5a 31bb ba94 e33a
00000040: 7406 2f3b 45b4 23bc 4210 49bb c43a c139
00000050: f760 d3b9 63ca 073c 2ff6 a6bb 9d69 c53b
00000060: bf81 11bb 6a05 8bbb 742c c43a 6297 bbba
00000070: 98f5 0e3b 1f20 4fbb 4ea7 d1ba 96fa c0bb
00000080: 3ced 9dbb 8f44 20bc eec1 203b ff84 1b39
00000090: 613c 013c dc29 52bc 3ca7 5cbb b2e1 8abb
000000a0: d28d 04bb 3bc9 74b9 3ea5 2dbb 0479 7bbb
000000b0: f3f3 9f3a f487 463a 26df c43b 570d 263b
000000c0: 087b 4abb e625 0ebb a0fa 7bba 42d6 02bc
000000d0: 4d35 74bc 97e3 413b 047b 27bb 9999 f7ba
000000e0: 86f5 d7ba 7328 36bb 97cd 31bb a0d5 ab3b
000000f0: 36e8 11bc b93d ab3b 1917 5ebb 530b 843b
00000100: 2b43 e83a 349e 42bb 646a 173b 42a1 d1bb
00000110: ffda 08bb b5d4 bb3b fa89 c9bb eee9 e6bb
00000120: d3cb baba acea 6d3b aaa9 d839 6810 163b
00000130: 75a8 87ba 6b9f 8a3c 5313 b1bb e4f7 3f3b
00000140: 779e 273a af71 403a b63c de39 7f64 2cbb
00000150: 0392 2bbb e7bc cbbb 2bda aeba fb3b 043c
00000160: 638c 61bb e0e9 67ba c959 dbbb 63a9 a7bb
00000170: f8ee f03a f796 e63b 3c63 e93a 8a8b c7b9
00000180: f983 f6ba 18fe 413b 16b6 183b 8e9a 9039
00000190: 7408 a6bb a80e 56bb 412e d5bb 54dc e83b
000001a0: 65be cab9 0016 033c 9603 64bc 0193 1dbc
000001b0: 778b d139 937f 7bbb faa7 223b f49d 1a3b
000001c0: 2d7e d33b af35 843b 312a 0fbb e32e 9c38
000001d0: 3cc3 213b 6fc0 51ba 3425 e53a 8a2b dd3b
000001e0: 0e7e 1bbb bcd6 3b3b 7437 fcbb e407 43bc
000001f0: 915e a1bb c48d 0b3c a8f7 913b 6ef5 aabb
9.935229e-05 0.003534947 0.0039787055 0.00043913105 0.0053420058 -0.007825868 0.0036970666 -0.0062509505
-0.005812741 -0.0036217042 -0.004300787 0.004479932 -0.0018852003 0.002561908 -0.002706218 0.001736305
0.0026706727 -0.00999171 -0.0030679856 0.00036855612 -0.000403173 0.008287999 -0.0050952653 0.006024553
-0.002220258 -0.0042425888 0.0014966861 -0.0014312083 0.0021813866 -0.003160484 -0.0015995295 -0.005889247
-0.0048195403 -0.009781971 0.0024529654 0.00014831497 0.007887931 -0.012827363 -0.0033669015 -0.0042383308
-0.0020226133 -0.00023344618 -0.0026496197 -0.0038371691 0.001220344 0.0007573359 0.0060080467 0.002533754
-0.0030896086 -0.002169007 -0.0009612236 -0.007985653 -0.014905286 0.0029585117 -0.00255555 -0.001889038
-0.001647637 -0.0027795106 -0.0027130598 0.005243972 -0.008905461 0.005225864 -0.003388828 0.0040296703
0.0017720213 -0.0029696347 0.0023104185 -0.0063973973 -0.0020882485 0.0057321438 -0.0061504813 -0.0070469296
-0.0014251418 0.0036303205 0.0004132514 0.0022897962 -0.0010349887 0.01692172 -0.005403915 0.0029292041
0.00063941575 0.0007341159 0.00042388373 -0.0026305018 -0.002617956 -0.0062175873 -0.0013340166 0.008070941
-0.0034415952 -0.0008846801 -0.006694053 -0.005116628 0.0018381765 0.0070370394 0.0017806063 -0.00038060202
-0.0018807641 0.0029600915 0.002330189 0.00027580973 -0.0050669257 -0.0032662544 -0.006505758 0.0071063433
-0.00038670297 0.008000851 -0.013916871 -0.009617568 0.00039967496 -0.00383756 0.002481936 0.0023592683
0.0064542503 0.00403472 -0.0021845216 7.447393e-05 0.002468302 -0.0008001392 0.0017482401 0.006749575
-0.0023726257 0.0028661927 -0.00769704 -0.011903737 -0.0049246033 0.008517686 0.0044545718 -0.005217246

action_model._continuous_distribution.mu.weight f4 [1, 128]
00000000: e201 ec3c bf72 1bbd 475a fc3c 4e00 2d3c
00000010: d4d2 493c bd80 92bc 544d 043d 442a 10bc
00000020: d625 a7bb e96d 4a3b 4a00 f7ba 382d a73c
00000030: e806 253b 8269 c13c 2461 83bc 55d4 b43c
00000040: 68dc a83c 9eb5 983a e470 873a 531f 9a3b
00000050: 8e07 193c ecf5 3e3d 8c9b 903c ccca 963c
00000060: 09f0 0a3b 2766 253c b814 ce3c 0bfb 963c
00000070: 22a2 f5bb 4cc0 2339 79f0 34ba 2474 ca3a
00000080: 0acf 0b3b 3074 383b 61f3 a63c 26c7 e23b
00000090: 0e25 263c 6cd5 57bb 3cbe 62bc 8842 acbb
000000a0: 45ef ecbb 561a 5fbb d05c b0bc 0e8e 853b
000000b0: 1c4b b83c 518d 8e3c c498 4bbc 706f 54bc
000000c0: 7fa1 023d ea3a a1bc 19df 31bd aa2d 81b9
000000d0: cbba be3a 70b5 c23c 2c1c 6e3b 2760 25bc
000000e0: 3eb1 60bb c0df adb9 7854 86bb e248 3a3d
000000f0: f9f6 dcbb 6e91 253c 5d7f 3ebc 164d 953c
00000100: 5da1 26bd 67a4 7a3c e44d 873c 060e 513c
00000110: 207f 213b 9c55 a3bc 046e 923a a4b7 3ebb
00000120: 6fe5 a53b a928 02bd 3b2e 51bc 2a04 443c
00000130: 9041 f9bc 6214 473d 7d3b 68ba 9da8 6cbc
00000140: a7ce 64bc e648 143d 2936 f6bc dca7 dcbb
00000150: 42b6 b7bc 812c 90bc ce4d f4bb a75b 503c
00000160: e524 05bc 24f2 02bd ffb9 fe37 2e34 01bc
00000170: 6991 b8bb ae25 173c b7bf 103c be87 eabb
00000180: 5f76 edbc 2bba ab3c dccf 8a3c 4136 78bc
00000190: 23e8 093b 01e9 26bc d71f a5bc f68a 293d
000001a0: a787 79bc 1241 ca3c 0826 87ba c1d9 5dbc
000001b0: 16b4 4dbc d8bd 05bc f1b6 c03c 2cbf bf3c
000001c0: ae50 d1bc e8ea 973c 8cd5 9fbc 0536 8b3c
000001d0: 9d41 363c bd6b 9dba 4377 0c3d 8327 9bbc
000001e0: 6430 b63c f05c 063c 25b6 1d3b 599c 1a3b
000001f0: 6323 59bb 57f7 21bc 0d84 21bc 17b7 87ba
0.028809492 -0.037951227 0.030804766 0.010559155 0.012318332 -0.017883653 0.03230031 -0.008799139
-0.005100946 0.0030888265 -0.0018844691 0.020407304 0.0025181118 0.02360988 -0.016037531 0.022073904
0.02061291 0.0011650806 0.0010333327 0.004703441 0.00934018 0.046621248 0.017652296 0.018407248
0.00212002 0.010095156 0.025156364 0.018430253 -0.0074961344 0.00015616528 -0.00069022883 0.001544599
0.0021333122 0.0028145425 0.020379724 0.006920713 0.01014067 -0.0032933606 -0.013839301 -0.0052569546
-0.0072306716 -0.0034042797 -0.021528631 0.004075772 0.022496752 0.01740137 -0.012426559 -0.012966022
0.031892296 -0.019681413 -0.043425653 -0.0002463882 0.0014551518 0.023768157 0.003633271 -0.010093725
-0.0034285332 -0.00033163838 -0.004099425 0.045479663 -0.0067433086 0.010105474 -0.011627045 0.018225234
-0.04068123 0.015297986 0.016516633 0.012759691 0.0024642423 -0.019938283 0.0011171703 -0.0029101158
0.005062751 -0.031777058 -0.01276737 0.011963883 -0.03042677 0.048603423 -0.0008858962 -0.014444497
-0.013965285 0.036202334 -0.030055122 -0.0067338776 -0.022425774 -0.017599346 -0.007455564 0.012717164
-0.008126472 -0.031969205 3.036577e-05 -0.007885976 -0.0056325686 0.009225292 0.008834771 -0.007157295
-0.028987108 0.020962795 0.016944818 -0.015149654 0.0021042905 -0.010187388 -0.020156784 0.04139229
-0.015230096 0.024689231 -0.0010311017 -0.013540686 -0.012555143 -0.008162938 0.023524733 0.023406588
-0.025551166 0.01854463 -0.019511007 0.016993532 0.011124042 -0.0012010258 0.034293424 -0.01893974
0.022239871 0.008200869 0.0024064865 0.0023591726 -0.0033132664 -0.009885631 -0.0098581435 -0.0010354248
