Assets/Games/Race/AI/Brain/My Behavior3.onnx (onnx, 147712 bytes, 7 tensors)

network_body._body_endoder.seq_layers.0.weight f4 [128, 18]
000000 93 51 35 be 85 19 cd be 49 2c 7d 3d 94 fe e4 bd
       -0.177069 -0.40058532 0.06180981 -0.111813694
000010 b3 d3 b6 be ba ed 18 3e 9e 9d 7e be 37 54 f2 3d
       -0.3570839 0.14934435 -0.24864814 0.11832469
000020 f5 4b 00 be 3e 5d b0 be 3a ff f9 3e 55 6a 8c be
       -0.12528975 -0.34446138 0.48827535 -0.27424875
000030 7d 5c b7 3d 1e cb 29 be 21 e3 93 bd 6a 3e e9 3e
       0.089531876 -0.1658139 -0.07221056 0.4555543
000040 44 71 b4 3d 73 e9 dd bc d7 8d a4 be 0a 3b 83 38
       0.08810666 -0.027088856 -0.32139465 6.257564e-05
000050 48 67 fb 3d d6 a0 81 3e d4 4f a2 bd 7f fd 27 3e
       0.12275559 0.2531802 -0.07925382 0.16405295
000060 0f 62 53 3d 42 43 4c 3e 68 e1 0d 3e de d1 8f 3e
       0.051607188 0.19947532 0.13855517 0.28089803
000070 a5 da a5 3d df 17 f7 be f5 19 ce 3d 52 51 74 be
       0.08098344 -0.482604 0.10063545 -0.23859146
000080 44 c2 4e be 4d 73 90 3e c9 87 95 be 5e 4b b0 bd
       -0.20191294 0.28212968 -0.29205158 -0.08608125
000090 f2 bb 82 bd 8c 41 69 3e cb db 8e 3e fc 36 74 3e
       -0.06383504 0.2277891 0.27902064 0.238491
0000a0 0e eb 9e bc 1c d7 81 3d a1 59 30 3d f0 68 f0 bb
       -0.019399192 0.06339857 0.043054227 -0.0073367283
0000b0 7a 62 8a 3d d5 7c dc be 84 0d 90 3e dd 54 45 be
       0.06757064 -0.4306399 0.28135312 -0.19270654
0000c0 c6 0c d1 bc fd 5a a3 3e ab 49 f6 bc cb 80 96 3d
       -0.025518786 0.31905356 -0.030064424 0.07348784
0000d0 89 39 87 3d 18 b5 2d 3e 87 38 8a be bc 23 08 bc
       0.06602771 0.16963613 -0.26996252 -0.008309301
0000e0 90 53 0e 3d b7 b0 ce bb a7 0f c0 3e 13 bc fa 3d
       0.03474766 -0.006307687 0.37511942 0.122429036
0000f0 48 52 37 bd 0b 2f 0c 3f 70 62 0f 3e 6c 2d 04 3e
       -0.044756204 0.5475928 0.14002395 0.12907952
000100 1d c6 6a 3e 01 0f 93 be 6f 1f cf 3e 19 b7 9f be
       0.22927137 -0.28722385 0.4045367 -0.3119438
000110 2c f6 63 3e c6 5e 77 be b4 b0 9b bd 10 f9 1d be
       0.22261876 -0.24157247 -0.07602063 -0.15427041
000120 c1 56 42 bd e4 68 ba 3d a4 c7 cb 3b a2 1a ff be
       -0.047446016 0.091020375 0.0062188674 -0.49825007
000130 81 4e 4f be 3f a2 52 bc 66 92 f7 3c f3 c8 33 3e
       -0.2024479 -0.012856065 0.030221175 0.17557125
000140 3a 03 97 3e 65 3b 15 bc 44 9e 39 be bc b7 ec bd
       0.2949465 -0.009108399 -0.1812678 -0.11558482
000150 19 3c 68 be d9 c4 0e bd 33 f8 b2 3e 91 0a 72 bb
       -0.22679175 -0.034855697 0.34954986 -0.0036932568
000160 14 f8 6d 3e ed 09 bd 3c 63 88 bf 3e d4 e0 d7 3e
       0.23239166 0.023076022 0.37408742 0.42163718
000170 66 be 58 be 04 3c 14 bf 58 81 99 be 1f dc cd 3d
       -0.21166381 -0.57904077 -0.29981494 0.100517504
000180 cb a5 1b 3e 52 47 86 3e 53 fe dd bd c0 f6 3f 3e
       0.15199964 0.26226288 -0.10839524 0.18746471
000190 b7 a5 cd 3c f5 36 fe bd b8 cc 10 3e 4f e5 1b 3e
       0.025103433 -0.12412826 0.14140594 0.15224193
0001a0 76 47 06 bd f5 c1 95 be 00 d4 59 be 57 90 bf be
       -0.032782994 -0.2924954 -0.21272278 -0.3741481
0001b0 b0 c4 13 3e f1 ea 8b 3e 5f 44 94 be 8d 3c 21 3e
       0.14430499 0.27327684 -0.28958413 0.15745755
0001c0 fb e8 28 3e 2e cd 95 3e 95 20 ae 3e 81 88 9d 3d
       0.16495125 0.29258102 0.34009233 0.07692052
0001d0 00 a4 ba 3d 23 b5 4c bf 25 b8 04 bd 0d e7 14 3f
       0.09113312 -0.7996389 -0.032402176 0.58165056
0001e0 1c 5c d3 3e ca 1f ac 3d 94 ed 3e be 3f 64 73 3d
       0.4128121 0.08404501 -0.18645316 0.059421774
0001f0 e4 c8 ea 3d a1 30 81 bd 15 74 a1 be 6a 7b c6 bd
       0.11464098 -0.06308103 -0.31533876 -0.09691508
000200 68 77 9d 3e 3c 41 b9 3c 70 c1 69 be b6 87 a6 3e
       0.30755162 0.022614114 -0.22827697 0.32525414
000210 a9 3c 5a 3b 0b 9a a8 be 37 35 e2 bd 99 34 38 3d
       0.0033300316 -0.32930025 -0.11045306 0.044972036
000220 ce 23 bb be 7b 43 26 bf ef ee c8 be 4b c1 ed be
       -0.36550754 -0.6494672 -0.39244792 -0.46436533
000230 46 65 53 bb 60 aa 8d bd 7e fd 2f 3e 44 08 a6 3e
       -0.0032256409 -0.06917262 0.17186543 0.3242818
000240 93 ec ac 3e fb 20 0c 3f c7 0d d1 be 16 8b 12 3d
       0.33774242 0.54737824 -0.40830824 0.035777174
000250 de 81 15 bf 78 8c 1f 3e f9 73 0e 3f 31 6d 07 bc
       -0.58401287 0.15580928 0.5564571 -0.008265779
000260 d3 84 55 3d 29 d9 9a 3e b8 e7 1d 3e 77 75 fe bb
       0.052128624 0.30243805 0.15420425 -0.0077654677
000270 83 23 8e bd 08 00 07 3e 3f 7c de 3d 23 d9 ad be
       -0.06940367 0.13183606 0.10863542 -0.33954725
000280 2d 23 23 be 39 56 58 bc 40 f6 37 3f 0c da f1 3e
       -0.15931387 -0.013204151 0.7186012 0.4723667
000290 3a 60 09 bd 17 cd 0d be 7c 7d 8e 3c f0 27 e8 be
       -0.033539034 -0.13847767 0.01739382 -0.4534297
0002a0 c3 34 20 3f 05 31 65 3e 25 8f 1f 3d ba 66 74 3e
       0.6258051 0.2238198 0.038954873 0.23867312
0002b0 1f cd 6e be 18 05 ad bd e1 24 fa 3d fc 6b 88 bd
       -0.23320435 -0.08448237 0.12214065 -0.066612214
0002c0 5a 6a 24 be a8 8e 95 3d 17 34 4e 3e 2e f5 83 3e
       -0.16056195 0.073026 0.20137058 0.25772995
0002d0 02 1d f2 3d 54 16 19 bd 0e 76 5f be ce 73 56 3d
       0.11821939 -0.03737481 -0.21822378 0.052356534
0002e0 ea 9e 24 bd 6e 79 c7 bd 06 1e 66 bd d9 af 8d 3e
       -0.040190615 -0.09739958 -0.056180976 0.27673224
0002f0 f9 3a 34 be 78 8e a7 3d 2c 2b fa 3e 62 87 5b 3d
       -0.17600621 0.08181471 0.48861063 0.053595908
000300 9d 73 11 be c7 c0 7b 3e f7 04 f0 bd 45 9f 45 3f
       -0.14204259 0.24585257 -0.11719697 0.7719615
000310 e7 26 4d be e6 aa 58 be b8 c4 e0 be fd a8 34 3c
       -0.20034371 -0.21158943 -0.43900084 0.011026618
000320 35 3f 57 bd 7e d5 4b be 33 0e 96 3e f8 d9 12 bd
       -0.052550513 -0.1990566 0.29307708 -0.035852402
000330 16 49 03 bf 63 29 71 bf cf 12 b1 3e 86 6c c6 be
       -0.51283395 -0.94203776 0.34584662 -0.38754672
000340 78 1d d6 3e 4f 68 14 be e3 a9 86 bd 24 3a c5 bd
       0.41819358 -0.14492916 -0.06575372 -0.0963023
000350 13 59 71 3e b8 1e 75 be 29 29 35 3f 04 f9 50 be
       0.23569135 -0.239375 0.7076593 -0.20407492
000360 28 c4 0d be f1 6a 5d be 0b f3 9e bc 4a c0 17 bf
       -0.13844359 -0.21622826 -0.019403001 -0.59277785
000370 60 2e d7 3e 3a e4 11 be 53 f4 83 bd e0 f9 43 be
       0.4202757 -0.14247218 -0.064430855 -0.19138288
000380 04 81 2c 3e e0 0d 12 3e 52 ce 9c 3d 14 1c dd be
       0.1684609 0.14263105 0.0765654 -0.43185484
000390 9a 49 0b be 64 92 b3 3d 70 d2 95 bd 57 ce 12 3e
       -0.13602296 0.08768156 -0.073155284 0.14336525
0003a0 9b 55 2b be c5 a4 72 3d 3c d0 ba be ad 5c ad 3e
       -0.16731875 0.059239168 -0.36486995 0.33859769
0003b0 00 3c 25 bf d7 ee 35 3e 43 2e 12 bd e5 39 85 3e
       -0.6454468 0.17766891 -0.03568865 0.26020733
0003c0 e2 35 16 3e 50 9d ed bd c4 0c 9e be 5a ab f4 bd
       0.14668992 -0.116022706 -0.30869114 -0.11946745
0003d0 f5 5d 2d 3d 7a e0 e7 3d 86 ab 18 bd b7 e1 56 3e
       0.042325933 0.113221124 -0.037272952 0.20984541
0003e0 cd 1b 1d 3c f5 46 35 be 1a 39 2d 3e a2 30 05 3e
       0.009589148 -0.17702849 0.16916314 0.13006833
0003f0 0b 1c a2 be ea 58 20 be bf ec 31 3e cf 7e 1d be
       -0.3166202 -0.15658918 0.17375468 -0.15380405

network_body._body_endoder.seq_layers.0.bias f4 [128]
000000 30 ff a9 bb bf db 63 ba 9f 24 e4 ba 1a 56 af 3b
       -0.0051878914 -0.00086921075 -0.0017405933 0.0053508403
000010 9d 10 51 bc 68 a6 b8 3b af 31 19 3b 07 13 9b 3b
       -0.012760309 0.0056350715 0.002337556 0.004732493
000020 7d 39 fd bb e4 ed 0c 3b 76 0b 19 bc 38 17 cb ba
       -0.0077278004 0.0021504099 -0.009341111 -0.0015494591
000030 18 67 96 ba 98 6c 17 bc 31 65 4a 3c 95 b6 b5 3b
       -0.0011474816 -0.009242199 0.0123532275 0.005545447
000040 a2 97 53 3b a8 6a a1 bb 70 1a 76 ba d5 96 75 bc
       0.0032286425 -0.0049260445 -0.0009388095 -0.014989574
000050 6d af 7d 3b 96 a9 49 bb 61 48 12 bc 5d 57 a3 bb
       0.0038709298 -0.0030771247 -0.008928389 -0.0049847797
000060 3d a3 53 3b 7a a6 7e 3b ba d8 c8 bb 40 2b 80 bb
       0.0032293343 0.0038856552 -0.0061293514 -0.003911406
000070 7d d8 8c bb 3a 16 89 bb 38 8f 57 3b da 17 a9 bc
       -0.0042982684 -0.004183558 0.0032891762 -0.020641256
000080 ab 68 8d 3a ed b4 4f 3b 1c 3e d8 bb 70 c3 40 ba
       0.001078864 0.0031693534 -0.006599201 -0.0007353341
000090 e2 8f 4f bc 08 ca e3 ba 6e c9 19 3c 76 cd 57 bb
       -0.012668582 -0.0017378936 0.0093864035 -0.003292886
0000a0 c1 45 f1 bb 7a ad ea bb 54 a3 46 bc 2b 14 f2 bb
       -0.0073630516 -0.0071617933 -0.012123901 -0.007387658
0000b0 f9 01 10 bc 9a 0f bc bb 49 23 2c bc 21 2f cd bb
       -0.008789533 -0.0057391645 -0.0105064595 -0.0062617217
0000c0 57 43 46 3a e9 f9 5c bb fe 07 15 3a ea cc c4 bb
       0.0007563135 -0.0033718294 0.000568509 -0.006005873
0000d0 5f 9b dd bb bb 9d 86 bb c8 49 ea bb 72 14 94 bb
       -0.0067629064 -0.0041081584 -0.0071499087 -0.004519039
0000e0 0d c4 a6 bb e8 56 8b bb 9c c5 6e bb 28 93 12 3c
       -0.005089289 -0.0042523034 -0.0036433702 0.008946218
0000f0 91 bb c1 3b c0 c2 14 bc 67 42 a0 bb bd 20 d8 3b
       0.0059122522 -0.009079635 -0.0048907283 0.0065956996
000100 fe f3 64 3c ce 91 52 bc fe 17 c0 3b 4e 6a b3 ba
       0.013974188 -0.012852145 0.005862235 -0.0013688297
000110 75 3c 0a 3c 3e ad 54 3c e1 83 04 3c ba ea dc bb
       0.008437266 0.012980757 0.008088083 -0.006741849
000120 86 f4 31 3b fa c0 98 bc 62 41 d9 3b d9 e5 45 3a
       0.0027153804 -0.018646706 0.0066301087 0.00075492036
000130 a4 dd 32 bb 7c db fd 3b 73 7a 66 3a 9f 64 ea bb
       -0.0027292753 0.007747112 0.000879205 -0.0071531083
000140 56 76 0e 39 c3 a6 af bb aa 64 41 3b a3 ad 20 bb
       0.00013586259 -0.0053604557 0.0029509463 -0.0024517558
000150 20 7b 02 3b 7a 83 81 ba e7 d4 3e 39 db 94 1d bb
       0.0019909814 -0.0009881102 0.00018199124 -0.0024045024
000160 dd 5d 1c 3b 40 9f 1d bc ed 78 8b bb f9 fa 84 b9
       0.0023859658 -0.009620488 -0.004256359 -0.0002536399
000170 63 e0 3d bc 8f 5b b1 3b 1f a9 ee bb c9 ef 89 3c
       -0.0115891425 0.005412526 -0.0072833444 0.016837971
000180 2c 9b 2c bc 7f b1 37 bc 4b dc 2e bb b4 02 d3 bb
       -0.010535043 -0.011211752 -0.0026681598 -0.006439531
000190 5d f3 6a bb 6e a6 96 bb a0 03 1e 3c 78 91 13 bc
       -0.0035850622 -0.0045974767 0.009644419 -0.00900685
0001a0 5f 81 1e bc 16 c1 81 3b 1b 02 24 bc d3 44 1a ba
       -0.009674399 0.003959785 -0.010010268 -0.00058848894
0001b0 78 bf f6 3a e6 d8 4d bb b2 a6 10 bc 53 93 83 bb
       0.0018825373 -0.00314098 -0.008828806 -0.004015365
0001c0 5a 96 19 ba b5 a2 be bb 72 53 f7 bb 45 9a 93 ba
       -0.0005858891 -0.005817736 -0.0075477893 -0.0011261186
0001d0 ff 50 14 3c 31 78 53 3b 98 95 85 bc 0a 81 5f 3b
       0.009052514 0.0032267685 -0.016306683 0.0034104013
0001e0 d5 9e 1f 3b eb 4e a8 bb 50 d1 96 bb e7 91 be bb
       0.0024356146 -0.005136361 -0.0046025887 -0.0058157328
0001f0 d5 c4 94 3b 72 3e 27 3c a3 b0 2f bc 36 f0 03 bc
       0.004540066 0.010207759 -0.010723266 -0.008052876

network_body._body_endoder.seq_layers.2.weight f4 [128, 128]
000000 e9 42 fd 3d a8 41 bd 3d 62 ab d8 bd de 7c f6 3c
       0.12366278 0.092410386 -0.10579564 0.030088838
000010 04 0b 00 be 68 69 ab 3d 4b 45 b1 3d ab 5d 79 3d
       -0.12504202 0.08369714 0.08655795 0.060880344
000020 09 74 75 3d 62 41 4f bd 87 b8 7f bd 73 46 e4 3c
       0.059925113 -0.050599463 -0.06243184 0.027865624
000030 ea 75 07 be 32 b4 1d be a2 84 d5 3d 75 bc 04 3c
       -0.13228574 -0.1540077 0.10425688 0.008101572
000040 dc 5a 08 3e 2e c8 35 3d b7 33 25 be 43 37 ae 3d
       0.1331591 0.04438036 -0.16133009 0.08506634
000050 9e c7 74 be 35 6c 2b bd 57 16 60 bd 89 35 dd 3d
       -0.23904273 -0.04185124 -0.054708805 0.10801227
000060 8b 58 98 3c 8d 24 7c be 9e 45 09 3d 9e 02 b5 bc
       0.018596908 -0.24623318 0.033513658 -0.022095975
000070 b6 c9 79 bd cd 7d b0 bb 44 29 1f 3e 14 fe 06 be
       -0.060983382 -0.0053860904 0.15543085 -0.1318286
000080 8c 0b f0 bd 0c 8b c0 bd 28 26 09 bc 4d fb 67 bd
       -0.117209524 -0.09401521 -0.008370914 -0.056636143
000090 a2 6c d6 3c b5 ce 0b 3e 6a 34 8e bd 48 26 1e bd
       0.026174847 0.13653071 -0.06943591 -0.038610727
0000a0 11 9b 2e be 01 b7 b3 3d 53 0b ce 3d bb f4 43 bd
       -0.1705134 0.087751396 0.10060754 -0.047840815
0000b0 1e 42 88 3c 51 d8 db bd 5e 4a 6a 3d 87 e1 a2 3d
       0.01663309 -0.107346185 0.05719983 0.07953172
0000c0 16 46 e2 bd 33 65 a8 3d d6 21 cf bd 89 a5 54 be
       -0.11048524 0.08222427 -0.101138756 -0.20766272
0000d0 38 06 8e 3d 00 31 df 3c 8c f0 24 3d 28 02 fc bd
       0.0693478 0.027245045 0.040268466 -0.12305099
0000e0 41 28 fd bd bc 19 3d 3e f4 60 43 3d 43 5e 57 bd
       -0.123611934 0.18466848 0.047699884 -0.05258013
0000f0 08 04 5f 3c 47 08 87 3b cc 56 fc bd 8f 75 80 3d
       0.013611801 0.00412086 -0.12321243 0.062724225
000100 53 be dc 3c 6f 88 82 bd 7d aa 88 3d 42 8a bc 3d
       0.026946222 -0.06373679 0.06673143 0.09206058
000110 49 45 e0 bd ee 8e e3 bd 8b d0 44 be 97 e5 d5 bd
       -0.10950715 -0.11111246 -0.19220178 -0.104441814
000120 ff de be 3c 45 28 c8 3d 63 be e6 bc 34 d9 2b 3e
       0.023299692 0.09773306 -0.028166955 0.16782075
000130 c2 16 0d 3d 5d 6d 9f 3d 18 45 dd bd 6f f2 10 3c
       0.03444553 0.07784531 -0.10804194 0.008846863
000140 ea 30 f3 3d c2 da eb 3d d2 af 3c bc b1 4f 16 bc
       0.11874564 0.11516334 -0.011516528 -0.009174273
000150 f2 ae 26 bd 4d 9a 56 bd 2b 97 8f 3c 43 55 1e 3c
       -0.040694185 -0.052393246 0.017528137 0.009663883
000160 a9 5d d7 3c cf 15 8e 3b 3d 7d db bb a0 4b 44 3d
       0.026289778 0.004336096 -0.006698279 0.047923684
000170 e3 8b d6 bd 25 b3 e6 3d 0d ef f4 bd 7f a2 00 bd
       -0.104759 0.11264638 -0.11959658 -0.03140497
000180 d9 4c fc 3d e0 a6 8a 3d e3 c4 5d 3d b1 15 c9 bc
       0.12319345 0.0677011 0.054142844 -0.024546476
000190 3e 33 a0 bd 67 12 2f 3e 8f a0 eb 3c 9c b1 9f 3d
       -0.07822274 0.17096864 0.028763084 0.07797548
0001a0 2e 77 0f 3d 7a 69 cf bd 74 50 58 bc 92 d3 d3 bd
       0.035025768 -0.1012754 -0.013202775 -0.10343088
0001b0 97 6f 2d 3d 47 0e 34 3d 3a d8 e9 3d 36 31 66 3d
       0.04234275 0.04395893 0.11418195 0.056199275
0001c0 ea b1 1c 3e d0 6f 15 be 7d 5c 83 3c 2f fb 15 3e
       0.15302244 -0.14593434 0.016035313 0.146466
0001d0 03 51 06 3c 88 ba 79 3d f6 85 8e 3d 81 b5 72 bd
       0.008198026 0.060968906 0.06959145 -0.059255127
0001e0 47 97 b8 bc 9c 98 5e bd 36 d5 9f 3c 37 50 5b bd
       -0.022533072 -0.05434476 0.019510847 -0.053543296
0001f0 ff 19 25 3d 71 60 d4 bd 7b 41 07 3c 7d c8 30 3d
       0.040307995 -0.10369957 0.008255358 0.04315995
000200 a2 4f c6 bd b2 22 97 bd 19 8b c9 3d b3 ff bc 3c
       -0.096831575 -0.073796645 0.09840984 0.023071146
000210 53 68 07 3e 39 11 9c 3d 5a d8 44 be 0c 5b 76 bd
       0.1322339 0.076204725 -0.19223157 -0.060145423
000220 a4 aa 6b 3e 8f 85 ed bc 82 9f 3a 3e 7a 8f c3 bd
       0.23014313 -0.02899435 0.1822491 -0.0954885
000230 10 f7 dd 3d 6f 6f 77 bd e7 58 c1 3c 72 cc a5 bc
       0.10838139 -0.060409006 0.023601962 -0.020239089
000240 f9 fb 05 be 4b ff 7f 3d 22 36 29 bd 92 4e 93 b9
       -0.13084401 0.062499326 -0.04131139 -0.00028096564
000250 bd d4 c0 bc ff 94 d1 3b 8d c6 ad 3d 55 2c 46 3d
       -0.023538942 0.0063959355 0.08485136 0.048382122
000260 c5 d5 f2 bd 9b e9 d7 3b 73 bf dc bd 92 1b 3a 3e
       -0.118571796 0.0065891272 -0.107787035 0.1817458
000270 71 39 5f bd 29 63 0e 3c 57 78 c6 bd da d6 46 3d
       -0.05449814 0.008690634 -0.09690922 0.048544742
000280 77 a5 5e 3d f1 b2 4a 3e 04 1a a9 bc f4 0c 6f bd
       0.05435702 0.19794823 -0.020642288 -0.058361962
000290 cb 37 cc 3c 66 d1 f4 bc b5 9b 9a 3c 82 11 10 3c
       0.024928948 -0.029885005 0.018873075 0.008793237
0002a0 33 47 b1 3d 6c bc 16 3e f2 01 92 3d 3c 62 84 bc
       0.08656158 0.14720315 0.07129277 -0.016160123
0002b0 e4 ab 40 bc 41 70 82 3d 70 22 d1 3d 12 76 2f be
       -0.011759732 0.06369067 0.102116466 -0.17134884
0002c0 8f fa 75 bd f5 12 21 bd 47 67 97 bc 97 ad d3 bd
       -0.060053404 -0.03932472 -0.018481864 -0.10335844
0002d0 bb dc 0d 3d fb 36 26 3d d0 d6 c0 bc c6 c8 0d 3d
       0.034634333 0.040579777 -0.02353993 0.0346153
0002e0 51 d9 fe 3a 55 cd 28 be ce 06 79 3d 71 d4 cd 3d
       0.0019443427 -0.16484578 0.060797505 0.100502856
0002f0 39 f1 d9 3d 3e 61 47 3d f9 ae 13 be e0 fd 36 3e
       0.10641713 0.04867672 -0.14422216 0.17870283
000300 7c bc 8a bd 02 77 ce 3c 71 10 c4 3d c0 58 ef 3c
       -0.06774232 0.025203232 0.095734484 0.029217124
000310 22 d9 2b bd 09 b4 ad 3b c9 20 4d 3d 00 ef 43 bd
       -0.04195512 0.005301003 0.050080094 -0.04783535
000320 f4 69 69 3c cd 12 c8 3d 1d a4 73 3d a1 ec ee bd
       0.014246453 0.09769211 0.059482682 -0.11666227
000330 56 c6 56 bd 8c 79 89 bc 66 7f a3 3c 0f a1 94 bd
       -0.05243524 -0.01678159 0.01995821 -0.07257282
000340 2c 9a c5 3d 1c 55 9a 3d 08 dc b3 bd f7 ab f2 3d
       0.096485466 0.075357646 -0.08782202 0.11849206
000350 f4 e2 15 3d c9 96 45 be 80 88 a9 3c d8 d4 36 3d
       0.036593392 -0.19295801 0.020694971 0.044636577
000360 d8 04 88 3e ac 59 86 3d 14 12 ae 3c 1e be 80 3d
       0.26566195 0.06560072 0.021248855 0.06286262
000370 d5 3d af 3c 72 17 fb 3d 8f 96 99 bd f9 ae cd 3d
       0.021391788 0.12260331 -0.0749942 0.10043139
000380 fa 3b 1c bd 18 e5 e0 3d 5f 2a bf bd ea 6b c8 bd
       -0.038143136 0.10981196 -0.093342535 -0.09786208
000390 7a b8 37 bd 38 a1 f8 bd 1e df 65 bd 6e a2 fe bd
       -0.044853665 -0.12140125 -0.056120984 -0.12433325
0003a0 6f 0a 6f 3c 7c c0 1f 3d 48 65 9a 3d d5 75 a3 3d
       0.01458989 0.039001927 0.07538849 0.07981459
0003b0 45 e8 e2 3c 14 1c 83 bd 0b 7c 0b be 69 af 75 3d
       0.027698645 -0.0640184 -0.13621537 0.059981737
0003c0 12 32 03 be 02 18 c4 bd 28 ba cc 3d bf 88 09 bb
       -0.12812069 -0.095748916 0.09996444 -0.0020986048
0003d0 ae 8e 70 3d 7a 35 15 bd 72 46 d4 3a 1e e5 46 bd
       0.05872982 -0.036427952 0.0016195311 -0.048558347
0003e0 36 ae d9 bd 69 59 3d 3d 02 f4 0e be 01 c9 fd 3d
       -0.10628931 0.046227846 -0.13960269 0.12391854
0003f0 ba 55 af 3d 89 84 e9 3a 00 7a f8 3d c4 dc 71 bd
       0.08561273 0.0017815988 0.12132645 -0.05904843

network_body._body_endoder.seq_layers.2.bias f4 [128]
000000 45 8a ce bb df 4f e1 ba c9 bd 6d bb 0d 37 bd b9
       -0.006303104 -0.0017189941 -0.003627645 -0.00036089905
000010 83 71 0a bb e1 5d 26 bc 18 ac 6c bb 1c 25 fc bb
       -0.0021124787 -0.010154218 -0.0036113318 -0.0076948535
000020 c2 c6 b3 39 25 3f a3 bb 35 f3 97 bb 12 43 a6 ba
       0.00034289627 -0.0049818926 -0.004637147 -0.0012684783
000030 fa a8 24 bc f0 48 3f 3b 4f 9d 7c bb 24 61 32 bc
       -0.010050053 0.0029187761 -0.0038545912 -0.010887418
000040 96 6a 76 3b 80 9c 12 3c f0 ab 31 ba 12 7c ca ba
       0.0037600151 0.008948445 -0.0006777635 -0.0015448353
000050 99 13 c5 bb 9a c4 06 bb 69 07 92 bb 64 6f 7d bb
       -0.006014299 -0.002056396 -0.0044564498 -0.003867113
000060 be b2 8d bb e4 73 2b bb f1 4b f7 bb 48 87 13 3b
       -0.0043242862 -0.0026161605 -0.0075468947 0.0022511054
000070 12 2b d1 ba fc 8e 1a 3b 5f 90 a7 3a 87 52 06 bc
       -0.001595827 0.002358376 0.0012784115 -0.008198387
000080 52 f1 ca bb 7d 94 8f b7 c0 5c 5e 3a c3 bd ad bb
       -0.0061933184 -1.7116074e-05 0.0008482449 -0.0053021624
000090 d2 d5 12 bb ae 53 79 bb 42 64 03 ba a7 0e bd 39
       -0.002240528 -0.0038044262 -0.0005012193 0.00036059806
0000a0 4e 53 cf 3b 34 fa 0e bc 12 02 95 bb 16 65 28 3a
       0.0063270694 -0.008726645 -0.004547366 0.00064237544
0000b0 d5 c5 a6 bb 97 ea 20 bc 4b fe 93 3a 79 9c 1e 3b
       -0.0050895014 -0.009821556 0.0011290995 0.0024202152
0000c0 7b 7d d7 ba 7b d2 31 bc 5b 7d 7c bb 04 9d 3a 3b
       -0.0016440594 -0.010853405 -0.0038526866 0.0028474936
0000d0 c9 8f d7 bb 11 64 35 bb 42 7d d3 bb 4c 3e 5e 3b
       -0.00657842 -0.0027678052 -0.006454141 0.0033911644
0000e0 c7 73 c8 ba b0 a2 f3 3a 07 a3 8b 3b 70 25 c9 ba
       -0.0015293293 0.0018587913 0.0042613777 -0.001534624
0000f0 8c 83 20 bc 6e df 1e bb ec 2c 96 3a db f4 1a 39
       -0.009796988 -0.0024242061 0.001145748 0.000147778
000100 02 f0 ac ba 28 6e 17 bb b5 ac 22 bc c0 02 72 bb
       -0.0013194086 -0.002310643 -0.009928872 -0.0036927909
000110 f2 01 cc bb d4 15 54 bb f7 66 7a bb 84 d8 9a bb
       -0.006225818 -0.0032361643 -0.0038208344 -0.0047255177
000120 15 eb 88 3b 28 6f 8c bb 12 08 b8 bb 43 6e 8e b9
       0.0041784146 -0.004285712 -0.0056161964 -0.00027166502
000130 57 16 8f bb 6d ba 8e bc 8b da 0e b9 c5 16 a5 ba
       -0.004366677 -0.01742288 -0.00013623589 -0.0012595287
000140 a9 dd 98 ba cb c7 0a 3a 0b 44 c3 3a b4 a7 a8 bb
       -0.001166274 0.00052940537 0.0014897598 -0.005146945
000150 df b2 ff bb 87 a4 dd bb 28 e9 54 ba 28 21 6c b7
       -0.0078033055 -0.006763998 -0.0008121901 -1.4074416e-05
000160 08 07 10 bb 34 73 b3 b9 5b 16 2a bb e3 80 2f bb
       -0.0021976847 -0.00034227374 -0.0025953266 -0.0026779703
000170 56 e4 1b bc e7 73 05 bc f1 47 52 bb 47 88 32 3a
       -0.009514889 -0.008145309 -0.0032086337 0.0006810468
000180 d7 92 56 bb 93 20 42 bb 64 4d 63 bb 3e 8f ad bb
       -0.0032741332 -0.0029621467 -0.003468358 -0.005296617
000190 b3 a0 69 bb 15 a8 f4 bb 0f 9a 9e b9 6a 83 88 bc
       -0.0035648763 -0.007466326 -0.0003025089 -0.016664226
0001a0 58 09 4a bb b0 e1 e5 bb f3 ff 89 ba ea c2 79 bb
       -0.0030828323 -0.0070154294 -0.0010528549 -0.0038110563
0001b0 9e 89 36 3b 39 02 4a bb 0a c2 e8 bb 66 7d a2 bb
       0.0027853022 -0.0030824079 -0.0071032094 -0.0049587963
0001c0 db 60 1f bc d5 78 a7 bc 29 39 19 bb ba a3 00 bc
       -0.009727682 -0.02044336 -0.0023380017 -0.007851535
0001d0 b5 4a 28 3b c1 6f ec ba 4a 26 39 bc 57 4a 5c bb
       0.0025679294 -0.0018038676 -0.011300633 -0.0033613646
0001e0 38 7e 28 bb 9d 1a 32 3c bc fa 05 3b 1c 8a 32 bb
       -0.0025709998 0.010870603 0.0020443639 -0.0027242964
0001f0 ba e7 9c bb 17 e2 f5 ba 98 86 f9 bb 53 99 91 bb
       -0.004788366 -0.0018759397 -0.007614922 -0.0044433265

network_body._body_endoder.seq_layers.4.weight f4 [128, 128]
000000 38 48 18 3d a9 e8 08 bb c4 84 76 bd ea 73 3d be
       0.03717825 -0.002089063 -0.06018521 -0.18501249
000010 7c a0 5f 3e 44 a3 c0 3d 3f af 5d b9 1a 65 32 3d
       0.21838564 0.094061404 -0.00021141487 0.04355345
000020 10 fa d4 3c 27 27 b2 bc 8a 7a 16 3c 9e e9 39 3e
       0.025998145 -0.021747185 0.009184489 0.18155524
000030 bb 97 62 3e bd 25 fd bd 10 5c c3 bd 4b 59 71 3d
       0.22128193 -0.12360714 -0.09539044 0.058923047
000040 8c 05 44 3e a8 98 95 3d 60 99 e8 3c 9f ad c7 bd
       0.19142741 0.073045075 0.028393447 -0.097499125
000050 6b 42 d3 bd f6 c3 29 bc 48 ff 30 bd 07 d3 7a bd
       -0.103154026 -0.010361662 -0.043212205 -0.061236408
000060 c2 88 56 3d 95 53 da bb c1 01 cd bd e8 9b d9 bd
       0.052376516 -0.006662796 -0.100101 -0.1062544
000070 8f 29 9f bd 74 bf d3 bd 4d e3 8e 3c c8 1e 42 bd
       -0.077715985 -0.10339251 0.01744237 -0.047392637
000080 08 96 3d bd 53 f3 44 bd 7c 9c 08 bd 4c 22 b0 3c
       -0.04628566 -0.048083615 -0.03335236 0.021500729
000090 51 cd 69 3d d3 72 cc 3a 4a 57 5b 3e 91 2f be 3d
       0.05708057 0.0015598185 0.21420017 0.09286416
0000a0 af 89 49 3c 0f 94 49 be 77 b0 10 be 67 a5 f4 bd
       0.012300893 -0.19685386 -0.14129816 -0.119456105
0000b0 fc fb bd 3a 2e 95 bd 3d 73 85 c0 bd a8 2f 7d bd
       0.0014494653 0.092569694 -0.094004534 -0.061813027
0000c0 09 6d a8 bd f0 ca f4 3d 79 f7 9a bd d1 14 44 3b
       -0.08223922 0.1195277 -0.07566733 0.0029919634
0000d0 ca 49 34 bd 3a 2a ec 3d 44 aa 1b be 56 bd f9 3c
       -0.044015683 0.115314916 -0.1520167 0.03048579
0000e0 64 79 08 be dd e1 08 3e d2 8e 31 3c c9 c8 e6 bc
       -0.13327557 0.1336741 0.010837274 -0.028171914
0000f0 96 4c 09 3e 48 04 63 3d e4 8a 06 3d ef 2f 28 be
       0.13408121 0.055424005 0.0328473 -0.16424535
000100 49 0e 2f 3d 91 57 8a 3d ce e1 f8 3d 5a 60 2e be
       0.042738233 0.06754983 0.12152444 -0.17028943
000110 73 ea 66 3d e7 57 f3 3d 34 6b 33 3e f4 79 53 3d
       0.056375932 0.118820004 0.17521363 0.051629975
000120 21 f8 d7 bd b4 4f af bd 9b ed 11 3e 92 3d ab bd
       -0.10545374 -0.08560124 0.14250796 -0.08361353
000130 2d 10 0d 3d 9c a3 d5 bc bd e5 e5 bc 19 9d 7c bc
       0.034439255 -0.026078992 -0.02806365 -0.015418314
000140 4e da 83 bd 83 26 08 bd 28 21 c2 bd b9 76 18 bd
       -0.06438123 -0.033239853 -0.0947898 -0.037222598
000150 59 d4 d2 3d 75 27 a5 3c 97 fa 3e 3c 4b c6 cd 3d
       0.10294408 0.020160416 0.011656425 0.10047587
000160 6a 65 0a 3e 38 61 a1 bd 39 c0 87 bd ee 57 64 bc
       0.13515249 -0.07879871 -0.066284604 -0.01393698
000170 ea fe e9 3c 5e 65 01 bd 61 e0 9a 3d a9 cd 6f 3d
       0.028563935 -0.031590812 0.07562328 0.058545742
000180 99 a4 01 bd c0 38 24 3e 82 88 83 3d 40 7a 65 bd
       -0.031651113 0.16037273 0.06422521 -0.05602479
000190 28 ab 6e bc 1c 18 1d bd f2 0f b9 3c 92 6d 44 be
       -0.014567174 -0.03835307 0.022590611 -0.19182423
0001a0 68 7d 6d 3d 39 9d 80 bd 84 dc 0c 3e 1f 1e bf bd
       0.057980925 -0.06279988 0.13755995 -0.09331917
0001b0 60 f3 04 3e b5 b3 3e bd 63 09 32 be ca 8e 40 bd
       0.12983465 -0.0465581 -0.17386393 -0.047011174
0001c0 fd 1b a5 3d 88 f4 05 be d4 3c 23 3c c2 71 91 bc
       0.08061979 -0.13081563 0.009963233 -0.01775444
0001d0 28 07 a0 bc 32 50 01 3d be 65 a3 3d 20 b6 4b bd
       -0.019534662 0.03157062 0.0797839 -0.049734235
0001e0 9e 62 34 bd 40 1d 1c bd 8e b5 8f 3d b7 4d 79 3a
       -0.04403936 -0.038113832 0.07017051 0.00095101766
0001f0 81 f1 df 3d e1 2d dc 3c 47 30 67 bc 2f 0c c5 bd
       0.10934735 0.026877346 -0.014110631 -0.096214645
000200 5d cf d1 3b 81 5e af b9 16 0c 2d 3d c3 76 06 be
       0.0064028935 -0.00033449012 0.042247854 -0.13131242
000210 5e 07 28 bd 93 ee eb bd e1 2c f3 bb 72 7b 51 3d
       -0.04102265 -0.11520114 -0.0074211215 0.051143117
000220 2b 1b 9e bd f0 6b 85 3d 13 e3 e5 3d f0 89 71 bd
       -0.07720026 0.06514728 0.112249516 -0.058969438
000230 05 0f 36 be ed c6 d7 3d 24 bb 99 bd 8f 1a bb bc
       -0.17779167 0.10535989 -0.07506397 -0.022839813
000240 c4 79 03 be 5f a4 fa bd 27 b9 4f 3d a3 7f de bd
       -0.12839419 -0.122383825 0.050713684 -0.108641885
000250 c0 09 84 3b 54 6d 27 bc 26 5f 71 bd c1 f6 8f bd
       0.0040294826 -0.010218937 -0.05892863 -0.070294864
000260 22 85 30 3e 63 b9 9d bd 36 f6 30 3d fd 18 18 3e
       0.17238286 -0.07701375 0.043203555 0.14853282
000270 2e 43 f8 3c 66 0c db bd 3c b1 95 bd af 9d 14 3e
       0.030305471 -0.10695724 -0.073091954 0.14513277
000280 4b ff 80 3d f7 75 23 3d 91 dc 3e bd 5d 3c cb bc
       0.06298693 0.039907422 -0.046597067 -0.024809057
000290 f9 6d 2b bc ea f7 a1 bc 6e 2e 5e bd 6f 10 2d be
       -0.010463231 -0.019771535 -0.054243498 -0.169008
0002a0 20 68 14 bd 79 29 85 bd 8a 19 26 be 3c 8e de 3d
       -0.036232114 -0.06502051 -0.1622068 0.10866973
0002b0 6f be 1a bc 67 f9 29 be b9 58 27 3c 39 f8 7a 3d
       -0.009444817 -0.16599046 0.010214024 0.06127188
0002c0 e0 22 56 3c a4 c8 13 bd 16 ad c5 3d d1 14 f6 bc
       0.013069838 -0.036080018 0.09652154 -0.030039223
0002d0 99 da 35 3e ca 4e a0 bd 86 c3 ab bd 87 9a 82 bb
       0.1775917 -0.07827528 -0.083869025 -0.0039857063
0002e0 53 df d5 bd 15 5c a2 bd b1 3a 0a 3c e5 fe 53 3e
       -0.10442986 -0.079277195 0.008436845 0.20702703
0002f0 09 d3 62 bc 94 49 52 3d 90 c6 b3 bc 58 70 e2 3d
       -0.01384426 0.0513397 -0.021945268 0.11056584
000300 12 0b a5 bc a8 27 cb bc 65 53 83 3d 59 dd db 3d
       -0.02014688 -0.024799183 0.064123906 0.10735578
000310 36 62 f2 3d 18 38 83 bd 6e 07 3f be bb 26 80 bc
       0.118351385 -0.064071834 -0.18655178 -0.015643468
000320 83 5f 16 be 30 17 cb 3d b6 d8 94 bd 5e 69 98 bd
       -0.14684872 0.09916532 -0.07267897 -0.07441972
000330 30 59 0a 3e 70 8a 9f bc 60 24 d4 bc a9 94 19 be
       0.13510585 -0.019475192 -0.025896251 -0.14998116
000340 e9 3f 72 3c 9a 0b 07 bd de f5 b1 bd e6 15 6d bd
       0.014785745 -0.03297005 -0.086894736 -0.057882212
000350 d9 f5 8e 3d b4 7c fa 3d 25 b9 b4 3d 15 ef 74 bc
       0.069804855 0.122308165 0.08824376 -0.01494958
000360 81 ee 41 bd 0a 9c e0 bd 6d 7d cd bd e9 18 ec 3d
       -0.047346596 -0.10967262 -0.10033689 0.11528189
000370 f3 9f 1d 3d 62 de 21 bd 7b 00 af bc f4 3e c5 bd
       0.038482618 -0.03951872 -0.021362534 -0.09631148
000380 49 ed 0f be 69 9a 74 3c 2c 83 be 3d 05 ca 5d 3d
       -0.14055361 0.014929392 0.09302363 0.05414774
000390 09 a4 aa bd 81 17 fd bd 89 e4 04 3e bc 98 74 3d
       -0.083320685 -0.12357999 0.12977804 0.05971597
0003a0 ed 64 6b 3d ad 39 60 bd 8f e0 84 bd f1 5d 09 3e
       0.057469297 -0.054742504 -0.06488144 0.13414742
0003b0 d2 91 36 3e 0a b3 3d be 55 55 3a 3e 03 50 c9 bc
       0.17829064 -0.18525329 0.18196614 -0.024574285
0003c0 33 f6 2c 3b 0d ce 04 3e 2d fc fa bc 03 0c dc bd
       0.0026391863 0.12969227 -0.030637825 -0.107444786
0003d0 a0 b4 ba bc 73 14 87 3d a7 1c 17 bd 78 b1 16 3e
       -0.022791207 0.06595697 -0.03689256 0.14716136
0003e0 85 e7 c9 3c 99 3d 15 be 83 64 a1 bd 9e 2c 1b 3e
       0.02464653 -0.14574279 -0.07880499 0.15153739
0003f0 58 f0 fc bc fe 3b 37 be c5 4e 04 bd 92 2d 82 bd
       -0.030876324 -0.17893979 -0.032301683 -0.06356348

network_body._body_endoder.seq_layers.4.bias f4 [128]
000000 40 a2 c6 ba 71 b6 1c bc 9f 73 fd bb db 45 bf ba
       -0.0015154555 -0.009564982 -0.0077347304 -0.0014592962
000010 e0 1b da ba eb f5 3d bb 01 80 82 ba 32 75 c1 b9
       -0.0016640387 -0.002898569 -0.0009956361 -0.00036899146
000020 c3 73 1a bc b2 7d ff bb e7 be 03 3c 1a 50 1c bb
       -0.009427014 -0.0077969665 0.00804112 -0.0023851455
000030 d6 61 85 bc d4 34 fc b9 0d 8a c1 bb ba c8 21 3c
       -0.016282003 -0.00048104546 -0.0059063495 0.009874517
000040 25 eb 57 3c 80 bc 5a 3c 47 6e 89 bb 29 58 bc 3b
       0.013178621 0.013350606 -0.0041940543 0.005747814
000050 c8 f5 84 bc 08 50 0e bb 0e 04 af ba 90 75 e5 b8
       -0.016230479 -0.0021715183 -0.0013352649 -0.00010941469
000060 ce ed 53 bb f2 67 77 bb ca 6a 7b bb 2d 61 39 bb
       -0.0032337788 -0.0037751165 -0.0038363212 -0.002828668
000070 38 af 70 3b d9 68 b3 ba d0 03 7b 3b 76 4d 35 3c
       0.0036725532 -0.0013687863 0.0038301833 0.011065831
000080 a6 bc 6b bb 92 74 8f bb f5 f8 ff bb 08 95 40 bb
       -0.0035970598 -0.00437791 -0.0078116604 -0.0029385705
000090 13 1f 8f bb 6d 00 f9 ba 69 60 db ba 94 22 f3 3b
       -0.004367718 -0.0018997319 -0.0016737106 0.0074198935
0000a0 14 46 50 3b 38 01 52 3a df a0 3e bc 56 90 de 3a
       0.003178005 0.0008011046 -0.011635034 0.0016980271
0000b0 49 6c 4b ba 19 b5 60 3c 6e dd 71 bc be a7 a6 bb
       -0.0007759971 0.013715052 -0.014762266 -0.0050859144
0000c0 5b 70 e7 3a 96 6e 84 39 84 ba 2d bb fb 97 6b 3a
       0.0017657386 0.00025259395 -0.0026508877 0.00089871854
0000d0 fe c5 05 3a 3c 09 ff b9 e3 72 25 3a d1 dc da ba
       0.00051030505 -0.0004864427 0.000631137 -0.0016697888
0000e0 7c 76 0d ba fb a8 38 3b 9e 62 35 39 ab c5 2a 3b
       -0.00053963787 0.0028176892 0.00017298243 0.002605776
0000f0 4f 93 4f 3c 5a fe 36 bb b7 f2 98 bb d8 c3 93 3a
       0.012669398 -0.0027922601 -0.0046676057 0.0011273576
000100 e9 6e 89 3a ea ef 83 bb 97 cb 9a bb bb e1 49 bb
       0.0010485324 -0.0040264027 -0.004723977 -0.0030804712
000110 1d 21 b6 ba b1 d9 a5 bb a3 b8 aa bc 15 ca 5a bb
       -0.0013895367 -0.005061351 -0.020839995 -0.003338461
000120 be f3 df bb fa 61 aa bb 02 08 b2 ba 26 41 c3 39
       -0.0068344763 -0.005199668 -0.0013582709 0.00037241838
000130 b1 bd 28 3a d2 51 9b b9 4f 50 4c 3c fc 94 4d bb
       0.00064369576 -0.00029624865 0.012470319 -0.003136932
000140 ae e5 91 3a d7 49 9e 3a e7 39 d0 bb 43 da de ba
       0.0011131072 0.0012076449 -0.0063545587 -0.0017002303
000150 b4 dd 97 bb c7 8b 1d ba bc cd 58 3b 51 29 66 ba
       -0.0046345834 -0.0006009903 0.0033081612 -0.00087799603
000160 cf ec 4e ba 20 24 10 3b 4a e4 e9 3a c9 39 b5 3c
       -0.00078935636 0.0021994188 0.0017844525 0.02212228
000170 0f 3a 90 bb 1b 19 ee bb 1a b4 51 3b 94 07 0e bc
       -0.0044014524 -0.0072661764 0.0031998218 -0.008668799
000180 1c ad 5f bb dc 0e 45 bb 8b 48 32 bc fb 53 a4 ba
       -0.003413028 -0.0030068671 -0.010881553 -0.0012537235
000190 89 63 2a bb 77 89 08 bb 90 c8 72 bb 35 99 4c 3c
       -0.002599927 -0.0020833889 -0.0037045814 0.012487699
0001a0 84 89 f6 bb c7 11 0f bc 01 6c 0e 3a dc 75 e8 bb
       -0.0075237174 -0.008732266 0.0005432964 -0.007094128
0001b0 6e 4b 3e bb fc 8e e4 ba 8b ff 82 ba 39 7b cc bb
       -0.0029036659 -0.0017437632 -0.0009994371 -0.006240275
0001c0 b5 0d 0a 3b 2c 74 e5 bb 3c 7a 75 bb c3 0f bc ba
       0.00210653 -0.007002374 -0.003745689 -0.0014347959
0001d0 2b 3e 53 bc 63 dc 8d ba b6 91 1b bc 28 d4 e4 bb
       -0.01289324 -0.0010823127 -0.009495189 -0.006983299
0001e0 31 a0 ce 3b 04 b9 ec 39 d7 c2 73 3a 19 93 ed 39
       0.0063057174 0.00045151275 0.0009298748 0.0004531376
0001f0 39 b7 28 bb ff f1 c3 bb ef 28 03 bc 49 6f 51 3c
       -0.0025743975 -0.005979776 -0.008005365 0.01278288

action_model._continuous_distribution.mu.weight f4 [1, 128]
000000 15 98 89 3b 2f a6 25 3b 8c b5 4a 3c 63 c6 a2 3c
       0.004199038 0.0025276055 0.012372386 0.019869989
000010 8f 65 a1 3c 6b 6e 13 bc a1 1b fe 3b b4 49 d3 3b
       0.019701747 -0.008998494 0.0077547585 0.006447995
000020 6b 52 ee ba 2a 7a a2 ba 3b 34 71 3c e0 13 fd 3b
       -0.0018182521 -0.0012396027 0.014721925 0.0077233166
000030 de 86 13 b9 a7 5b 20 3c 4e 25 17 bb 3c 8b 69 3c
       -0.00014069254 0.009787477 -0.0023063007 0.0142543875
000040 f9 b8 bf 3c 65 87 fd 3c 89 6a fb 3b af 9d bc 3c
       0.023403632 0.03094835 0.007672612 0.023024408
000050 05 89 aa ba 79 e5 69 bc 4d e7 da 3b b0 13 62 3c
       -0.0013010806 -0.014275902 0.0066804052 0.013798639
000060 65 5b c6 bb c4 f4 83 bb be 8c 0a 3c 01 3b 3d 3c
       -0.0060533755 -0.004026981 0.008456407 0.011549712
000070 f1 15 d9 3c 83 9b 70 3c eb ec 79 3c 2e 69 e9 bc
       0.02649972 0.014685514 0.01525424 -0.028492536
000080 fc 5d 97 3c 0c 76 ed bb 6b f6 cb bc a3 f0 3d bb
       0.018477432 -0.0072467383 -0.024897775 -0.0028982542
000090 ac 1d 89 bc 63 98 87 3c 68 88 59 3c 99 b4 42 bc
       -0.016737781 0.016552156 0.013277151 -0.011883878
0000a0 c5 40 f4 bb 5d d9 a9 3c 3b b0 64 bb 24 2c cd 3c
       -0.00745401 0.02073353 -0.003489508 0.025045462
0000b0 41 8f b0 ba 2a b9 a0 3c 4b c2 29 3a 3c ea b6 ba
       -0.0013470427 0.019619543 0.000647579 -0.0013955305
0000c0 69 95 53 3d ea 9c 93 3b 42 e8 10 3a b7 37 9f 3b
       0.05165616 0.0045047896 0.0005527773 0.0048589366
0000d0 bb 83 c6 3c b8 12 4c 3c d0 f5 72 bc e1 f0 37 3c
       0.024232736 0.012455635 -0.014829114 0.011226864
0000e0 07 31 d6 3c 02 3e 61 bc 19 76 ab bc 5a 9f cd 3c
       0.026146425 -0.013747694 -0.020930337 0.025100399
0000f0 6f d7 07 bd 74 08 1a bb 47 77 ac ba 17 58 e7 bc
       -0.033164438 -0.0023503574 -0.0013158106 -0.028240247
000100 68 09 2c bc 40 b1 f2 bc 71 dc 08 bb 69 ef d6 3b
       -0.0105002895 -0.029625535 -0.0020883346 0.0065593016
000110 60 fc f4 ba 50 68 d2 bc 46 37 15 39 bd 70 31 bc
       -0.0018690936 -0.025684506 0.00014230338 -0.010830102
000120 40 b0 70 3b 7c 6f 29 3c f3 75 93 3a d6 03 17 3d
       0.0036726147 0.010341521 0.0011250362 0.036868893
000130 7d 27 a2 3c a4 8d 61 bb d1 77 20 bd 5b 76 8a bb
       0.01979422 -0.00344167 -0.039176766 -0.004225535
000140 6d 44 a1 3b f3 c4 d8 3c ac dc a1 3b 17 e0 aa bc
       0.004921487 0.0264611 0.004939636 -0.020858807
000150 f2 60 4b bc 35 89 b3 bc d5 0c 37 3c 60 d3 c7 bc
       -0.01241325 -0.021916011 0.011172493 -0.024392784
000160 49 0c f5 3b 79 f8 23 3c c8 28 21 3c 18 99 27 bc
       0.007478271 0.010007971 0.009836383 -0.0102293715
000170 23 b6 29 3c 21 27 31 b9 37 37 2d 3d 13 ee cd bb
       0.010358366 -0.00016894612 0.042288985 -0.006284484
000180 08 fc 8e bc f3 3e a1 bb b3 a7 c8 ba e8 4e 27 bd
       -0.017454162 -0.004920834 -0.0015308767 -0.040846735
000190 37 8b 26 3c 27 b7 62 bc c6 7e 28 3c 9e 9f 9c 3c
       0.010165027 -0.013837612 0.010284131 0.01911908
0001a0 49 a3 d1 bb ae 09 fe ba 8c a5 b5 3c 6f b1 3d 3b
       -0.006397639 -0.0019381547 0.022173665 0.002894487
0001b0 53 3a bd 3c f8 2f 1b bc 3a af 7c bc da e4 19 3b
       0.0230991 -0.009471886 -0.015422637 0.0023482353
0001c0 93 4f bb 3c a1 e0 5e bb 6e 7d ce ba 40 98 d2 38
       0.022865092 -0.00340084 -0.0015753934 0.00010041939
0001d0 4a 3a d7 39 aa 4c ba 3b f0 e8 d9 bb 0f 5d d2 3a
       0.00041051424 0.0056854086 -0.0066500828 0.0016049462
0001e0 97 db 7e 3c 44 72 f4 3c 0b 0c c8 3c 1c 8d f4 3b
       0.015555284 0.029839642 0.024419805 0.0074631106
0001f0 b8 b1 89 3c e9 ce 08 bc 62 c6 94 3b 67 68 19 bc
       0.016808376 -0.0083501125 0.0045402506 -0.00936327
